models/weights models/Consumo_energetico_lstm_modelPytorch.pth (torch, 209860 bytes, 9 tensors)

lstm.weight_ih_l0 f4 [256, 5]
00000000: 16ce 983c 2045 70bc 9ebb 823d 4d3c 5fbe
00000010: bcfd 423d ef7e 3ebc 0027 743e 32cb 143e
00000020: 37e4 2c3e 1315 50bf 5f38 39be 1a88 60be
00000030: 71f2 bdbd ecf6 05be b78d 4bbd 5c77 a4be
00000040: 3047 f63e 2b42 f43b 6067 9bbe 2c44 d0be
00000050: 4ccb c9bd ecce 2fbe fc10 373e 7b5f 343f
00000060: acef 87be d10f 82be 08bc 43be b14c 3b3e
00000070: 803f 8bbe 030c 0ebe 75e5 85bd ed9d 52be
00000080: 967c ca3d a692 d9bc 8e96 8dbe cb31 4cbe
00000090: 689f 393f 24ed 94be 6326 2bbe 5a05 84be
000000a0: 6cc1 bfbe 1709 52be b245 31be 4673 db3d
000000b0: d3ec 383b 1049 653e 85a8 85bd 6d25 763d
000000c0: 067b 96bb 2b33 3e3f 787d 3abe 60ec 2bbd
000000d0: a226 89be 73af 003e 92f8 d8bc 0a19 a83e
000000e0: e51a 3abe ec5e e5bd c062 16be 889f c23c
000000f0: 5a89 823d a6bb 9fbd cc64 b63d 5f4a 9bbd
00000100: 8a1c 5a3e 4e15 673e 99dc ccbd 1fe1 7cbe
00000110: 4d41 c13c 1e24 d6be e512 bcbe 15b7 7ebe
00000120: 89c2 04be 4e0f 6fbd 1539 92bd c887 f73e
00000130: 9a10 67bd 3936 2b3e 99df 5f3e d1f0 ad3b
00000140: 747c 82be 7d21 99be 2313 cfbd 5349 f2bd
00000150: 9f68 9d3d 2107 83be 2fb8 48bc 8474 583e
00000160: b605 fbbc da3d 47bc 8dfc 96bd 8524 f53e
00000170: 30e2 683d 0054 7fbe 0ee1 a2be 6b4c aa3d
00000180: d98a adbe b5a8 c1bd 22ce 98be b36a be3d
00000190: 8821 2b3e 6fb4 a6be 437b 993d aedd 47be
000001a0: 3631 f4bd b2f3 a9be d391 b83e 28cd 353d
000001b0: b085 6fbe 914b 54be ed1f 253c d857 143f
000001c0: 9fcd 1f3d d213 0dbd ab89 91be 28d0 0bbd
000001d0: caee 30bd 3d05 69bd 8ee4 e33d 4fbb c6bd
000001e0: b6fb db3e 47ab 543e a2f6 26be d53f 34be
000001f0: 07c6 b53c b16d 5fbe 3e2a c2be 0bdb 03be
00000200: f2d2 10be 3e91 fcbd f9ab 4abd bb9c 2bbe
00000210: 0548 5ebd 6d19 b6be 488b 0fbf 0df5 82be
00000220: f6ec aabc f645 25bd 7ed9 17be 5a7f e2bd
00000230: 61ae 183e 31a4 bb3e bd8a 96bd e19d 46bd
00000240: 1545 bcbd fdaf 213e e219 b93d 8aef f3b9
00000250: 91d7 10be 7de8 cc3d d8f7 abbe 64f4 0dbe
00000260: e9b7 a6be 1913 ff3c 268e 80be b9b3 33bc
00000270: 8f94 58bc ce96 39be 4954 97be 02ff b9be
00000280: 2fe8 aabe ab3d 7dbe f5ac 26be 3345 a0be
00000290: 0bad 07bf 2ded 593e 3d22 febd 2678 44bb
000002a0: 538e f6bd 54b4 483d a6ed 953d fc73 abbe
000002b0: e7e6 56be d1c8 a1be e105 c1be 4f54 34be
000002c0: 8092 97bd f7b4 013d 51e7 84bd 6bd5 16be
000002d0: 9a6c 563e 49df 13bd 9566 d6bd b9e1 573d
000002e0: e8b5 943d 87a3 de3d 8417 70be 7372 883b
000002f0: 2139 efbe f936 5dbe db69 43bd 5f66 6ebe
00000300: 9413 e93c 1045 7fbe d4e5 703e fd81 4e3e
00000310: d604 34be c29b 34bd 5aae 85be 0d51 84bd
00000320: 844e 283e cc98 4a3d 7fa4 a6bd fd4d aabe
00000330: 8b82 c3be 0984 0fbe 75e0 e2bd 5152 2c3e
00000340: f671 5fbe d0c0 76be 1359 9f3e 9ee3 573e
00000350: f9f7 9f3d f635 6ebc 2e91 7fbe 81a8 eabd
00000360: 85e7 89be e54d abbd d722 b8be 68b3 85be
00000370: ccec b93d 1fc0 93bd f726 28bc ca1e 56bf
00000380: 9d61 e3be 6f08 2cbe 690b 83be ca93 4cbd
00000390: 3140 8ebe 0be9 1e3d b93f 9abe 4555 fbbd
000003a0: 9041 233e f8ae a93d b8ce e4be 84bb 0abe
000003b0: cb48 97be 7ee1 113e 1102 7bbe ef80 5bbe
000003c0: 9be6 8dbe 3f45 47bc b906 b4bc 19c0 b33d
000003d0: aa8a 43be 1cbc 9abe 116f 53be f600 54bd
000003e0: 6d94 27be 2b95 40be 5c28 5ebe acdb dcbe
000003f0: 7540 59be 0841 f3be 4d70 0abe a47a aabd
0.018652957 -0.014664918 0.063834414 -0.21800347 0.04760526 -0.011626943 0.23843002 0.14530638
0.16883932 -0.81282157 -0.1808791 -0.21926919 -0.09274758 -0.13082474 -0.049695697 -0.32122314
0.48101187 0.007454177 -0.30352306 -0.4067701 -0.09853229 -0.17168778 0.17877573 0.7045819
-0.26550043 -0.25402692 -0.19114697 0.18290974 -0.27196884 -0.1387177 -0.06537906 -0.20568056
0.09887044 -0.026559185 -0.27653927 -0.1994087 0.7250886 -0.29087174 -0.16713862 -0.25785333
-0.37452257 -0.2051128 -0.17311743 0.10715346 0.002821733 0.22391152 -0.06526283 0.060094286
-0.0045923023 0.74296826 -0.18211925 -0.04197347 -0.26787287 0.12566929 -0.026485715 0.32831603
-0.18174322 -0.111997455 -0.14686108 0.023757711 0.06373854 -0.07799463 0.08905944 -0.075825445
0.2129995 0.22566721 -0.10003013 -0.24695252 0.023590708 -0.4182443 -0.36733165 -0.24874528
-0.12964834 -0.058364205 -0.07139794 0.4834578 -0.056412317 0.16719903 0.2186264 0.0053082486
-0.25485575 -0.29908362 -0.10111072 -0.11830392 0.076859705 -0.25591376 -0.012250944 0.21138197
-0.030642372 -0.012160743 -0.07372389 0.47879425 0.056856334 -0.24934387 -0.31812328 0.08315357
-0.33894995 -0.094560064 -0.29844767 0.09297695 0.1671201 -0.32559535 0.074942134 -0.19518158
-0.11923449 -0.33193737 0.36048755 0.044385105 -0.23390841 -0.20731951 0.0100784125 0.5794654
0.039014455 -0.03444273 -0.28425345 -0.03413406 -0.043196477 -0.05688976 0.11127578 -0.09703695
0.42965478 0.20768462 -0.1630502 -0.17602475 0.022189153 -0.21819188 -0.37922853 -0.12876527
-0.14142969 -0.1233239 -0.049480412 -0.16759007 -0.054267902 -0.35566273 -0.560719 -0.25577584
-0.020864945 -0.040349923 -0.1482906 -0.11059447 0.1491027 0.36648706 -0.07350681 -0.04849041
-0.09192864 0.1578979 0.0903814 -0.00046527042 -0.14144732 0.10005281 -0.33587527 -0.13862759
-0.32562187 0.031137036 -0.2510845 -0.010968142 -0.013219013 -0.18123934 -0.29556492 -0.36327368
-0.33380267 -0.24730556 -0.16276915 -0.31302795 -0.5299842 0.21281882 -0.12408874 -0.002997884
-0.12038865 0.0490001 0.073207185 -0.33486927 -0.2098652 -0.31598523 -0.37699798 -0.17610286
-0.074009895 0.031666722 -0.064894326 -0.1472985 0.20939866 -0.036101613 -0.10468785 0.0527055
0.07261258 0.10871034 -0.2344647 0.004164034 -0.46723273 -0.21603002 -0.047708374 -0.23281239
0.028451718 -0.24928689 0.23525172 0.20166774 -0.1757997 -0.044093855 -0.26109582 -0.06460772
0.16436201 0.049462125 -0.08136844 -0.33262625 -0.38185534 -0.14015211 -0.11077968 0.16828276
-0.21820816 -0.2409699 0.31122646 0.21082923 0.07810969 -0.0145392325 -0.24957725 -0.11457921
-0.26934448 -0.083644666 -0.3596408 -0.2611344 0.090783685 -0.072143786 -0.010263196 -0.8364073
-0.4441041 -0.16800092 -0.25594643 -0.04994563 -0.2778335 0.038796466 -0.30126742 -0.12272123
0.15942979 0.08285326 -0.44688964 -0.13548094 -0.29547724 0.14246175 -0.24512507 -0.21435903
-0.27715 -0.012162506 -0.021975862 0.08776874 -0.19095865 -0.3022164 -0.20647837 -0.05175873
-0.16365214 -0.18806903 -0.21695083 -0.43136346 -0.21215995 -0.47510552 -0.13519402 -0.08324173

lstm.weight_hh_l0 f4 [256, 64]
00000000: 77fd 6abd 3601 b23c 1573 acbe 54a7 973c
00000010: 6a9c 4a3e 5318 973d 716e 243e cd9c 643b
00000020: dca3 263a c90d 79be 5673 7bb9 0162 e23d
00000030: 2454 11bd 117d f9bd fb35 34bd 64fc 2dbc
00000040: e2b7 56bd 2038 d6ba 1a8f 9c3e 0f65 29bd
00000050: 9636 283e 7c89 8abd b9a4 b8bd f1f0 d4be
00000060: 3a40 ce3c 5d3d aa3d 7ffb 8abd 7b21 923d
00000070: e1cd c33e cbab 0c3e 8b8f 2d3e 0a6b a4bc
00000080: 4f16 553c 0626 183e bc29 213d 6eaf a3bd
00000090: d6ca ec3d d006 6d3e 856c 9bbc ecd0 bc3d
000000a0: 3b15 8dbd 0fb7 04bc 223f 07be 50d7 c23d
000000b0: 609f a43c 31bc abbd 2a1d b13c cd06 c5bd
000000c0: 3d82 933d 17f5 e13d f0df aabd be2b 743d
000000d0: 4ffc b0be ab57 6e3d b824 79bd 4e13 f63c
000000e0: cff1 753e 1ebe 293e c9a8 c4bd d4d3 0a3e
000000f0: 589a ae3c b91e 13be 1e31 b13b 5f19 b5bd
00000100: ca4c 853c 16f1 00bf 0185 b9bd 841d bbbd
00000110: 79b2 34be d7d3 b33e adae b53e 219b 42be
00000120: 61f0 8fbd a88d 7bbf 410e 3dbe e3c2 ebbe
00000130: 615f 40bf 4157 95bd a40f 543e 1ff0 78bc
00000140: 57b8 f03d 2ca4 8cbe 8c39 a2be 94bb 14be
00000150: 9d0e 2cbe 466f 113c f086 71be 9ec7 6b3e
00000160: bea9 5d3e c01a 0cbe 5254 7bbe 38f6 cf3c
00000170: 27dc 843e f49e 25be 1a28 b0bd 1786 66be
00000180: 99d9 6c3d 999f e7be b001 4b3e e064 a5be
00000190: 391f 263e ad97 cabe 0eec 30be 910e d53e
000001a0: 56e6 39bd 2ad1 bf3e 71d8 2b3d 039c 5e3e
000001b0: 6cf9 4cbe 0873 0b3d 10cf 84be b66f 49bd
000001c0: 1d08 eebe e323 2abe 26ff 723e ac4c 0abe
000001d0: 37c9 33bf 5eae abbc 8248 e03d 0766 bf3d
000001e0: 72ab 3bbe b674 22bf 941c 4f3d c0cc e13e
000001f0: bfb0 aebc 4451 533e a125 103e a0f6 50be
00000200: 86d5 21be b2d0 9cbe de6c adbd 2c9c 2abe
00000210: 0362 603d ccad 9abe 84dc 503e e2f5 06bf
00000220: 6cb7 b73e a079 80be b200 943d 8a05 b33c
00000230: 0904 493e bd95 0e3e 6f5f 193e c650 803d
00000240: 3c96 1c3d 3db5 e73d 47d4 2b3e 35c2 bebc
00000250: e8dd 4d3b 0af8 12be e271 d9be 39eb a73e
00000260: 20ec debd 278f 02be 97b5 7a3e 47c4 2bbe
00000270: 22a3 0f3e c818 07bd 60d4 23be 122f a0bc
00000280: 36d2 01be 6187 46be 4099 91bc f2c4 5f3e
00000290: b6f1 d8bc dd1a 973e b073 05be 120a eebd
000002a0: f25c 00bd c8cc 33be df57 09be 2c5b 353d
000002b0: 8949 87bd 1be2 793e 2ebc 1c3e 9982 aa3e
000002c0: 45b8 963c 9801 5e3e 3a78 60be 6c0b c83e
000002d0: 7a86 543e 2b8b 533e ca07 34be 5456 2b3d
000002e0: b136 893d 564d 0abe 42ab 7ebe 3765 cabe
000002f0: 574a b7be c857 7f3e c288 a83d 5191 a3be
00000300: 4adf 4fbe 3d2c 643e 2b54 3abe a6f2 9d3d
00000310: cf21 1d3e 651d 16be 7e70 863e fe64 1c3e
00000320: 90d9 bd3e 4ed7 403c 4773 cabe 5fa0 833e
00000330: a294 1dbe 38f2 d33d 045e 95bd 66e3 4ebe
00000340: 4f86 063e 6d02 bdbe 44f3 cc3e 8dd4 60be
00000350: ee35 b93e 324e e7be 6dae 643e 249a a0bf
00000360: 4645 86be 9900 21be 6a8c d5be 268e 1fbd
00000370: 7d77 87bd 104b ae3e 26ef 073e 9e57 183e
00000380: e1ca dcbd 2b57 1f3f dcca d93d 75bd 49be
00000390: 2dcf 823e f843 5a3e d1a9 08bc 08bb ca3e
000003a0: 0898 4fbd 2f46 65be 74f0 64bf d58c 81bc
000003b0: da2b 0e3e cbea feba 80d4 093e d623 eabd
000003c0: 2fe7 ca3e 3af5 343e 309a 2f3e 12bd 033e
000003d0: 8a56 13bf 8c45 2e3c 2818 a8be 4173 573e
000003e0: e00c 2cbe db88 6e3e b253 f4bd 1154 9d3d
000003f0: 79e3 aebe 739e 26be 85d2 f7bd e56d 42bd
-0.05737063 0.021729093 -0.3368155 0.018512405 0.1978623 0.07377686 0.16057755 0.00348835
0.00063568144 -0.24321665 -0.00023980191 0.11053849 -0.035480633 -0.12182058 -0.043996792 -0.010619257
-0.052421458 -0.0016343631 0.30577928 -0.041356143 0.16427073 -0.06764504 -0.09015793 -0.41590074
0.02517711 0.08312485 -0.0678625 0.07135292 0.3824301 0.13737409 0.16949289 -0.020070571
0.013005807 0.14858255 0.03934644 -0.07992445 0.115621254 0.2314713 -0.018972645 0.09219536
-0.06888815 -0.008100285 -0.13207677 0.09513724 0.020095527 -0.08385504 0.021620352 -0.09620438
0.07202575 0.11033075 -0.08343494 0.05961203 -0.34567496 0.058189075 -0.060826033 0.030038502
0.24018024 0.1657643 -0.09602506 0.13557369 0.021313831 -0.14367189 0.0054074666 -0.0884273
0.016271967 -0.5036787 -0.090585716 -0.09136489 -0.17646207 0.35122558 0.3548483 -0.1900449
-0.070282705 -0.98263025 -0.18462469 -0.46047124 -0.75145537 -0.07292033 0.20709091 -0.015193968
0.1175391 -0.27469003 -0.3168453 -0.1452468 -0.1680245 0.008876627 -0.23586631 0.23025367
0.21646783 -0.1368208 -0.24543884 0.025385961 0.25949213 -0.16173917 -0.08601399 -0.22512089
0.057824705 -0.4523895 0.19824862 -0.32303524 0.16222848 -0.39568844 -0.17277548 0.41612676
-0.04538568 0.37464267 0.04195446 0.21739201 -0.20017022 0.03404525 -0.25939226 -0.0491788
-0.46490565 -0.16615252 0.23730144 -0.1350581 -0.70228904 -0.020957168 0.1095133 0.09345632
-0.1832712 -0.63459337 0.050564364 0.44101524 -0.021324513 0.20636469 0.14076854 -0.2040658
-0.15804109 -0.30627972 -0.084680304 -0.16661137 0.05478097 -0.30210721 0.2039662 -0.5271894
0.35882127 -0.25092793 0.07226695 0.021853227 0.19630446 0.13924308 0.14977811 0.06265406
0.038229212 0.11313865 0.16780196 -0.023285965 0.0031412784 -0.14352432 -0.42469698 0.32796648
-0.10884881 -0.12749921 0.24483334 -0.16774093 0.14027074 -0.032982618 -0.15998983 -0.019553695
-0.12677845 -0.1938758 -0.01777327 0.21852472 -0.026482444 0.29512683 -0.13032413 -0.116230145
-0.03133864 -0.17558587 -0.13412426 0.0442764 -0.066058226 0.24402659 0.1530616 0.33302763
0.018398413 0.21680295 -0.21920863 0.39071214 0.20754424 0.20658557 -0.17581096 0.041830376
0.06699885 -0.13506064 -0.24870017 -0.39530346 -0.35798904 0.2493583 0.082292095 -0.31946805
-0.20300022 0.222825 -0.1819617 0.07712297 0.15344928 -0.1465965 0.262577 0.152729
0.3708005 0.011770083 -0.39541075 0.2570829 -0.1538873 0.10348934 -0.07293323 -0.20203933
0.13137172 -0.36915913 0.40029347 -0.21956082 0.36173958 -0.45176846 0.22332163 -1.254704
-0.26224726 -0.15722884 -0.4170869 -0.038953923 -0.066145875 0.34041643 0.13274822 0.14877173
-0.107808836 0.6224238 0.106343955 -0.19701178 0.25548688 0.2131499 -0.008341269 0.3959582
-0.050682098 -0.22390054 -0.894294 -0.015814224 0.13883916 -0.0019448636 0.13459969 -0.114326164
0.39629504 0.17671672 0.17148662 0.12865093 -0.57553923 0.010636698 -0.3283093 0.2104006
-0.16801786 0.23294394 -0.11930026 0.0768205 -0.34157923 -0.16271381 -0.121007 -0.047468085

lstm.bias_ih_l0 f4 [256]
00000000: 4648 75be ee87 1b3c 9049 f2bd 9a7f afbe
00000010: 7db1 42be c451 1bbd 812d 3abe 0419 72be
00000020: 1c7d 15be a1f5 4c3d ffa3 64be 1e68 acbd
00000030: 7942 5b3d 862b d9be 7554 99be 6cda 0dbd
00000040: 17b5 493d 8f85 ccbd 9414 ebbd 1987 bbbe
00000050: 8398 c7bc 3d10 67be 2c6c 50be 49d4 8abe
00000060: 75bf 83be 9c3c babe 0afd b6be cb15 5abe
00000070: b625 4cbe 8fff 743c fcb0 d2be 0558 01be
00000080: f494 3ebe a3d7 8a3c 4a41 98be 1376 01be
00000090: fe54 02be 1d69 82be 1e19 27be 466f 9fbe
000000a0: 8027 1cbe 44c6 71be 140e 133d 7383 aabe
000000b0: 3ff3 b6bd 3031 a5be 862d 60bd 0eab b3be
000000c0: 7842 b1be 3853 efbd aad1 e7be da10 25bd
000000d0: 8457 32be 6fad 51be d79d 72be 12da e8be
000000e0: aacb 7ebe 77ba 1fbe 24b6 03bf 1f51 583d
000000f0: da8f a7bb fd5c a3be 55f3 49bd 3ea6 0ebe
00000100: abbe a93d 4f1d b63e 13a1 d0bd 0a0e 3abe
00000110: 3673 033d 2908 a33c 0136 033e 7533 f53d
00000120: f65c 02be 19b4 c33e ecac fcbc 7df3 ed3d
00000130: 4fb1 503e 6e44 08bd 5d1e e5bd dfc2 823e
00000140: 03c7 fbbc 2a11 10be 46c3 9a3d 8965 07be
00000150: 86d6 8dbc 735e 183e 14ff 023e 2ec7 64bc
00000160: 09dc 083d c215 6ebe 857f 65be c9df a73d
00000170: 251c 6a3e 2955 3e3e 83e6 00be b71f f3bc
00000180: dbfa 75bd 429a fc3d 2ebb 403e cc8e 03bd
00000190: 31f0 183e 20f6 03bc c4c7 0b3d c47a debd
000001a0: a12e 9f3d 58de 57bd 1ef7 513e 5427 32bc
000001b0: 509a 8c3e 6d95 50be b273 73bd 9208 8ebe
000001c0: 6a68 bd3c df02 02be 7b05 afbd 7fb6 25be
000001d0: d9e5 fc3d 8f6c 3f3b 9c9c 61be 8db7 28be
000001e0: a014 243d 61bc 64bd 09eb 65be 3ed6 a23d
000001f0: 4c36 b6bd 3b9f a83d c550 083e e95b 85be
00000200: d7d6 be3c 715d abbd ef04 1dbd dea7 3bbe
00000210: 99cc a4bd 5339 613d a008 f4bd f83d 35be
00000220: 8a2d 60bd 7530 2ebe 2ec5 963d 5506 6fbd
00000230: 4671 43be eda4 4ebe fb6a 313e 47c7 e1bd
00000240: ffc9 f6bd 8f6d f43c 6a2d 56be 66f5 46ba
00000250: 60f7 a83c 861a e8bd af8c 02be 3488 aebc
00000260: 9ffe 2f3e dc0e 1fbe 6bae edbd ba48 9c3d
00000270: 433c 8e3d 88ae b3bd bfb0 07bc 7b79 69be
00000280: 36e9 0c3e 7ac6 73bd 8e19 1b3e 1368 523d
00000290: 05a7 533d cedb 1bbe bde7 62bd 6a69 2dbd
000002a0: 0134 ab3c 6b27 5a3d 2b94 0c3c 5df9 abbc
000002b0: d8f3 8e3d d382 64bb d258 bbbd cd67 11be
000002c0: b936 c0bd 0823 163d b8a4 8b3d 635d 33be
000002d0: 7efb dabd 5936 10be 5fe7 093e 7f56 cdbc
000002e0: 5659 12bd 12d2 1abe 4cba 93bd e2f1 fd3d
000002f0: ccc3 ff3d 6166 d2bb 1c35 543d 1a8b 333c
00000300: 946e f6bc ba58 ddbd 5ccc 98bd 0c75 c4be
00000310: 4a09 c2bd de38 a8bd 1d4b 5cbd 7fbd 36be
00000320: cf19 78be 999b 22be fa92 31be 76b3 1a3d
00000330: 19cf 303e f72d 9ebe 91e8 7ebe 6ef3 c33d
00000340: 2864 cebc 2d10 0a3d eec9 a8bd d875 9cbe
00000350: 0914 70be dbea 0fbe 84c7 92be be80 91bd
00000360: 35a5 acbd 9a36 2abe 69de dbbe 410f 31bd
00000370: 84bf 81bd c344 73bc c476 68be 094f 48be
00000380: 6459 27be d9c5 53be 4964 98bd 0efc a7bd
00000390: e1a0 5bbe 839e 1ebe d953 4dbe 3fa5 5ebe
000003a0: bcc3 bebd 413e 7bbe 2522 113d 7170 a9be
000003b0: a6f8 4abd e5b4 ffbd 1329 c7bc 65e5 7cbe
000003c0: 5c29 afbe c10c 86be 2f5d 6bbe c57e 78be
000003d0: 8fca 5abe d018 50be 3593 9abe 7457 62be
000003e0: 43de 48be 633a 4ebe 4a5f c1be 539b 0dbe
000003f0: dbec 00be f01b b3be bbf8 94bd aaa2 eebd
-0.23953351 0.009492857 -0.11830437 -0.3427704 -0.19013019 -0.037919775 -0.18181421 -0.23642355
-0.14598507 0.050038937 -0.22328185 -0.08418296 0.05353019 -0.42416018 -0.29947248 -0.03463213
0.049244966 -0.09986412 -0.11478534 -0.3662651 -0.024364715 -0.22564788 -0.20353764 -0.27115086
-0.25732008 -0.36374366 -0.35739928 -0.21297376 -0.1993626 0.014953508 -0.41150653 -0.12631233
-0.18611509 0.016948527 -0.29737312 -0.12642698 -0.12727734 -0.2547082 -0.16318175 -0.31139582
-0.15249443 -0.23610789 0.035902098 -0.33303413 -0.08933114 -0.3226409 -0.054730915 -0.35091442
-0.34621024 -0.116857946 -0.45277148 -0.040299274 -0.17416197 -0.20476316 -0.23693024 -0.45478874
-0.24882379 -0.15598474 -0.514498 0.052811738 -0.005113584 -0.31906882 -0.049304325 -0.13930604
0.0828832 0.35569236 -0.101869725 -0.18169418 0.032092296 0.019901352 0.1281357 0.11972705
-0.12730774 0.3822334 -0.030844174 0.11618707 0.20380138 -0.033268385 -0.11187432 0.255393
-0.030734545 -0.14069048 0.07556777 -0.13222326 -0.017314207 0.1487978 0.12792617 -0.013963504
0.033412967 -0.23250487 -0.22411926 0.081969805 0.22862299 0.18587174 -0.12587933 -0.029678209
-0.060053688 0.1233411 0.18821403 -0.032118604 0.14935376 -0.008054286 0.03412606 -0.108632594
0.07772566 -0.052702278 0.20504424 -0.010873634 0.2746148 -0.20369501 -0.059436508 -0.27740914
0.023121078 -0.12696408 -0.08545967 -0.16182898 0.123485275 0.0029208993 -0.22032398 -0.16476269
0.040058732 -0.055843715 -0.2245294 0.0795102 -0.08897075 0.08233496 0.13312061 -0.26046684
0.023295803 -0.08367432 -0.038334783 -0.18325755 -0.080468364 0.05498631 -0.119157076 -0.1769942
-0.05473093 -0.17010672 0.07361828 -0.058355648 -0.19086179 -0.20180102 0.17325966 -0.11024337
-0.120502464 0.029837398 -0.20915762 -0.0007589668 0.02062577 -0.11333184 -0.12748979 -0.021305181
0.17186974 -0.15533012 -0.11605533 0.07631059 0.06945088 -0.087735236 -0.008281886 -0.22800247
0.13760838 -0.059515454 0.15146467 0.051368784 0.051672954 -0.15220568 -0.055396784 -0.04233686
0.02089882 0.05326025 0.008580248 -0.02099293 0.06980103 -0.0034868016 -0.091478005 -0.14199753
-0.093854375 0.036654502 0.06818527 -0.17516093 -0.106924996 -0.14083232 0.13467167 -0.025065659
-0.03572973 -0.15119198 -0.07213268 0.12399651 0.12488517 -0.006420896 0.05180846 0.010958457
-0.030082025 -0.10807939 -0.074608535 -0.3837055 -0.09474428 -0.082139716 -0.05378257 -0.17845725
-0.24228595 -0.15879668 -0.17341223 0.037768804 0.17266501 -0.30894443 -0.24893405 0.09567915
-0.025194243 0.033706833 -0.0824164 -0.30558658 -0.23445143 -0.14054434 -0.28667843 -0.07104634
-0.08429948 -0.16622391 -0.42943123 -0.043227438 -0.06335357 -0.014847937 -0.22701555 -0.195614
-0.16342694 -0.20680942 -0.07441003 -0.082023725 -0.21448089 -0.15490155 -0.20051517 -0.21742724
-0.09314677 -0.24535467 0.035432953 -0.33093598 -0.049553536 -0.12485675 -0.024311578 -0.24696882
-0.34211242 -0.26181605 -0.22984765 -0.24267109 -0.21366332 -0.20321965 -0.30190435 -0.22103673
-0.19616036 -0.2013946 -0.37768012 -0.13828783 -0.12590353 -0.34982252 -0.07274004 -0.116521195

lstm.bias_hh_l0 f4 [256]
00000000: 267b 13be 3446 c83d e25c d1bd 22fd 97be
00000010: cf62 a5be dc8e 12be 2bfd e9bd 4097 37be
00000020: 06ad 42be 318c db3d e5bf 55be 9161 14be
00000030: 37d2 b4bd d27d 95be 07cc 56be 4c2a d4bd
00000040: 5f50 0fbe b2f0 793d 5008 3abe 8e8f 88be
00000050: 8364 b1bd 1782 b5be 8055 05be 793f a6be
00000060: c8ba 70be a681 88be 5e7f bcbe 6a2f e4bd
00000070: 7e8d 3abe a477 f5bc 5ce3 aebe 15a6 36be
00000080: 3bbe 76be 13cc 8a3c d511 80bd 2f6c 40be
00000090: fe0d 0bbe 654a 11be 6a0b 5abe d8a9 19be
000000a0: 7ad6 25be aada 42be 9df5 543e bba5 83be
000000b0: a7a5 ccbd 9ce1 1fbe 02b9 ddbd d2d7 83be
000000c0: d33c 35be a002 f6bd ac7a e7be e73a d9bd
000000d0: 8af6 35be a722 97be d7da ccbe f243 f1be
000000e0: 0249 8cbe bb3d 4cbe 7233 9abe e8df 37bb
000000f0: 6227 37be 6918 bdbe d88d 85bc f640 48be
00000100: 2fca b03d 0425 1a3e 09aa 51be 7c5a 50be
00000110: 4a95 333e 34ac c53c 70cf 343d 694e 353e
00000120: 3851 d7bd f073 053f e21b 223d a3aa 683d
00000130: 2b1e 1b3e 57c3 8fbd 29d2 babd bbf2 af3e
00000140: f327 183d d487 37be d684 073d b347 65be
00000150: 54b1 fd3d 4e83 af3d 5354 60bc 0143 2d3e
00000160: 49cc 9abb 26b9 1abe b743 f3bc 0cce 613d
00000170: c313 5d3e bb2f 9f3e 9394 29bd cafa 5abe
00000180: 743f 30be e2af fb3d 401c 563e a500 24be
00000190: 1135 973c 3405 e2bd 4dd0 ba3b 7c64 d0bd
000001a0: fc99 62bd 1201 953c fdb3 943e 11cd 26bd
000001b0: 0078 a93d 7d04 8cbd d7eb 9abd 1487 a1be
000001c0: 0ba7 9dbd e321 14be 7ba7 9e3d 3ed2 b6bd
000001d0: a7ef 293e 3650 5d3a 1d1f 08be 6167 99bd
000001e0: 43fd dcbd 1288 f93d cacd 81be e420 673e
000001f0: cebe b3bd ea6d 053e f7ce 6c3d b25b c4bd
00000200: 7097 173e 8254 0d3d d8bc b33d 1e81 46bd
00000210: 4c2f 26be 7332 fe3d c4b7 ebbd 2954 a7bb
00000220: ac95 18bd da85 b5bd 4dcf f5bb bbd6 02bd
00000230: 700f 1cbe bb00 2dbe 54c1 aebb 74c8 14be
00000240: 7f02 f6bd baf6 b2bd b658 51be ffcf f2bc
00000250: 3f46 42bd 0c64 b1bd 97bf 2abe 9a80 583d
00000260: 4254 e33d 713a fb3b 6938 8abd a062 2e3e
00000270: 2e31 683d 8e71 f3bc 7e3e 66bd 45ae 21be
00000280: 6c04 333e 309f 39be 00d5 163e 0dec 4fbd
00000290: 4e98 1c3e 78c5 24be 3e16 31be af65 b9bd
000002a0: 33e7 41be b4d3 953d 4e4a 603e ebcc 09be
000002b0: ace0 353d 0266 8cbd f23e 12be 3cb9 cf3a
000002c0: 40d8 08be 6b83 b5bc 6e53 653d 29bd 15be
000002d0: 0236 8c3d 82fd e9bd 0539 323e 4176 f4bd
000002e0: f39e 35be 6452 50be bb18 523d c45c 9fbc
000002f0: f26e 293d 463b a1bd 13c8 10be 1254 c4bc
00000300: 5c9b 38be 8669 e3bd 5b67 8bbe 829e adbe
00000310: 352a 80be 4075 3cbd 77c8 fbbd 1ff4 2bbe
00000320: 7764 55be cbbf 8abd 212d babe cce7 71bd
00000330: 2f9c 073e d7dd b1be 752d 9fbe adb8 19bd
00000340: e319 94bc 94a8 95bc b4f6 03bc 96de 95be
00000350: 47b4 49be 2630 aebe cf09 39be b369 8fbe
00000360: fc0c 08bd a21c 54be 1535 d0be c037 83be
00000370: 1906 12be d47a b0bd 12b2 bfbe 728e 9ebe
00000380: bda7 b0be 9cc7 2cbc a005 46be ca5e e2bd
00000390: 6117 1dbe 1004 8fbe d9d4 cebd d93a a3be
000003a0: 129b 97bd 28ec 93be 826f a3bc 7718 aabe
000003b0: e75e dfbd 70e4 82be e0d6 33bd e864 b1be
000003c0: b094 b0be 5766 9ebe 895f 77be accb 25be
000003d0: f6c9 89be e460 16be 012f 3dbe a798 b5be
000003e0: 86e6 c8be 219b 9ebd 1239 d9be fdd5 1ebe
000003f0: bd5e 15be 2610 85be a826 0b3c 9389 94be
-0.14402446 0.09779015 -0.10222794 -0.29685313 -0.32301947 -0.14312309 -0.11425241 -0.17928791
-0.19011316 0.10720099 -0.20873983 -0.14490344 -0.08829158 -0.29197556 -0.20976268 -0.1035963
-0.13995503 0.06102056 -0.18167233 -0.26672024 -0.08661749 -0.35450813 -0.13020897 -0.324703
-0.23508751 -0.26661414 -0.36815923 -0.11141856 -0.18218037 -0.029964276 -0.34157836 -0.17836793
-0.24096005 0.016943013 -0.06253401 -0.18791269 -0.13579556 -0.14188536 -0.21293417 -0.15006196
-0.16195098 -0.19028726 0.20796819 -0.2571238 -0.09992533 -0.15613407 -0.10826303 -0.25750595
-0.17698984 -0.120122194 -0.4521078 -0.10606938 -0.17769828 -0.29518625 -0.40010712 -0.4712215
-0.2739945 -0.19945423 -0.30117375 -0.0028057043 -0.17886117 -0.36932686 -0.016302988 -0.1955603
0.086323135 0.15053183 -0.2047502 -0.20347017 0.17537418 0.024129964 0.04414314 0.17705692
-0.10513538 0.5213003 0.039577372 0.056803357 0.15148227 -0.0701968 -0.09122116 0.34364876
0.037147474 -0.17922908 0.033085667 -0.22390632 0.12387338 0.08569966 -0.013691979 0.16920091
-0.0047240597 -0.15109691 -0.029695375 0.055128142 0.2158957 0.31091103 -0.041401457 -0.21384731
-0.17211705 0.12289406 0.20909214 -0.16015871 0.018457921 -0.11036149 0.005701101 -0.10175416
-0.055322632 0.018188987 0.2904357 -0.04072291 0.08274841 -0.068367936 -0.07564514 -0.3154837
-0.076978765 -0.14466052 0.07746788 -0.08926819 0.16595326 0.00084424333 -0.13293119 -0.07490421
-0.10790493 0.121841565 -0.25352317 0.2257114 -0.087766275 0.1303021 0.057814565 -0.09587802
0.14803863 0.03450442 0.087762535 -0.04846298 -0.1622898 0.12411966 -0.1150966 -0.005106468
-0.037252113 -0.08863421 -0.007501519 -0.031943064 -0.15240264 -0.1689481 -0.005333105 -0.14529592
-0.12012195 -0.087384656 -0.20443997 -0.029640196 -0.047430273 -0.086616606 -0.16674648 0.05285702
0.11100055 0.007666879 -0.06749041 0.1702981 0.056687526 -0.029717233 -0.05621194 -0.15789135
0.17482156 -0.18127131 0.1472969 -0.050762225 0.15292475 -0.16090953 -0.17293641 -0.09052598
-0.18935852 0.0731577 0.21903345 -0.13457076 0.044403717 -0.06855394 -0.14281824 0.0015848051
-0.13363743 -0.022157392 0.055987768 -0.1462294 0.06846239 -0.11425306 0.17404564 -0.11936618
-0.17736416 -0.2034393 0.051293116 -0.019453414 0.04136557 -0.07872634 -0.14138822 -0.02396587
-0.18028015 -0.111041114 -0.2722729 -0.33909994 -0.250322 -0.046010256 -0.12294095 -0.16792344
-0.20839106 -0.06774863 -0.36362556 -0.05905895 0.13243173 -0.34739563 -0.31089368 -0.037529636
-0.01807875 -0.01826886 -0.008054424 -0.29271382 -0.19697677 -0.3402111 -0.18070148 -0.2801033
-0.033215508 -0.20714048 -0.40665498 -0.2562847 -0.14260139 -0.086171776 -0.37440544 -0.30968052
-0.34502974 -0.010545637 -0.19338083 -0.11053236 -0.1534095 -0.27932787 -0.10099191 -0.31880835
-0.07402624 -0.2889111 -0.019950632 -0.3322179 -0.10906773 -0.2556491 -0.043906093 -0.34647298
-0.3448844 -0.30937454 -0.24157538 -0.16190976 -0.26911896 -0.14685398 -0.18474962 -0.35468027
-0.39238375 -0.07744432 -0.42426354 -0.15511318 -0.14586921 -0.25988883 0.008493103 -0.2901121

lstm.weight_ih_l1 f4 [256, 64]
00000000: c507 f6bc 871e 313d 849d 39be 30ac 2e3e
00000010: 8704 0bbe c2b8 f0bd 40a3 e5bd 13c0 b4bc
00000020: 3306 0cbe 3264 40bc 4929 88be 2bfd 6d3b
00000030: 4595 a23d 669e 173e a407 7abe e6b6 633d
00000040: 771a 803e 1cac 5abd beb3 733e 5bc1 e3bb
00000050: 9227 5e3e fc84 a7be 1874 4f3e aed2 a0bd
00000060: 046a d5bc 165b 5f3d 803c 92bc 2917 50bc
00000070: 27aa 593e e479 983d aa6a 723e ec2d ae3c
00000080: 9014 9abe 81c9 083e fc62 69be b080 09be
00000090: 1f03 e7bd 3b30 4cbe 558e 2e3d d406 4a3e
000000a0: a7e0 6cbc 6ae5 543e 150b 30be 7c80 333e
000000b0: 9f90 a5be a882 e9bd 7354 76be 9b14 35bc
000000c0: 106f 1d3e c0b0 e5bd cc17 89bd 0fdb 02be
000000d0: 2582 eebd e5e7 613e a6e4 abbd 01db e83d
000000e0: b04e 6fbd e9ef a93d 8ae7 59be b19c b23d
000000f0: 6755 4fbe d710 3abe 1b10 64bd 9b07 01be
00000100: 495c a93d fd4d 1c3e 5431 d7bc 6952 11bf
00000110: e044 aa3c 35ea b3bd 8eb4 efbc 4dc1 57be
00000120: ba4b bbbe 809f 9cbc 5e9c 15bf f43a d33e
00000130: 5802 5cbe b56e 00be 630e 80be d1fa b1be
00000140: 05d1 23be 424a 4cbf 4b27 25be 2d3e aabd
00000150: 7eeb 073f 786e 11bf 0883 20bf 2c4c 94be
00000160: 4e77 ba3d 16c9 993e e3b7 4abe dc87 0e3f
00000170: ef05 023f 2ec6 18be 5da5 ba3e 65a0 54be
00000180: 80ff 9f3d 0344 9d3e e7f9 cb3e b419 c9be
00000190: 11d3 ee3e 929b 2dbd 636d 963e 41e3 643e
000001a0: 0f80 38be 2210 6c3e 48ef e5bd f64a 0cbe
000001b0: 6dc5 bdbb ca6f 26be 55a6 bfbe a5ed cdbe
000001c0: f401 61be 6729 ef3c e005 953e 4d86 84be
000001d0: 5e9a 1bbd 3e5a 7dbd 6e7a cabd 2e45 dd3e
000001e0: 610e e9bd b10a 893e 20ce c63e 2a09 c33d
000001f0: 1fa8 f73d ef37 68be 2895 44be c9de 7b3e
00000200: cb19 053e e469 873e 7b75 593e ff0e 303e
00000210: c1b7 80bd 7f2d 5cbe 3c7c c63d 5ffb 4bbe
00000220: 7e1a 66be fdc7 a5bd f7b5 f5bd ab55 d43d
00000230: 9f6d 68bc 2188 cbbd 2dec e73d e94b 79be
00000240: a83a 283d 544c dc3a e237 143d 6ae0 4b3d
00000250: eb5d 4b3e 76af 2d3b 3cbc b2bd c442 61be
00000260: 4085 2ebd 50b1 723a 19c7 cf3c fd95 5c3e
00000270: c631 9dbc 7a49 08bb 2b19 2e3e 39bb 16bd
00000280: 5e41 d0bd 6951 35be b250 0c3e 3bb5 d23d
00000290: 2317 293e 37ff 82be 7e8b a3bb 3d16 b43d
000002a0: a441 833d 8198 9c3e acaf 55bd 31a9 253e
000002b0: 934c 4c3e 3569 c73c ca69 8ebe 0fed 5dbd
000002c0: bc1a 043e de74 3abe 079c 77bc dd92 173d
000002d0: d661 0cbe 2083 f53d 69f8 c23b ee8f 7fbc
000002e0: cd4c 563e d3f0 8cbd 3a4e fb3d 5dcb 52be
000002f0: 9242 b43d 7e91 793d f59b 153d 82b9 95bd
00000300: 1e2f 0cbd 58f8 473e f6f1 953e a427 b8bd
00000310: 310b 8cbd 5bbe 53be dd04 953d 75f6 a6bd
00000320: 61d6 82be 1c33 54be 7571 ccbd 5e3a d4bd
00000330: 966d b6bd ceb7 aabe efc4 83be 0650 11bd
00000340: 5e91 febd bbd8 8fbe 46ce 5a3e 83c8 833d
00000350: 3521 cfbd 379e eebc b1b8 4dbe a2e6 42be
00000360: f8e0 e23d 6352 ebbc 2663 e3bc 5bf4 623e
00000370: d3f6 263e 7fe9 0d3d a0fc f53e 7e35 433e
00000380: 08a5 31be 8049 acbc 6bb3 6c3e f3e4 37be
00000390: d800 7b3e 9e49 dc3d 7692 64be ed38 043e
000003a0: a8ae 123e b536 cdbb 8de7 11bc 33ae 993c
000003b0: d761 753e 4c2d 1cbd c5a1 513b 7929 803a
000003c0: e6e8 2f3e f455 40be 07fe 0fbe 50d8 533d
000003d0: 1a7a cebd a481 b5bd 2928 99bd 62d3 ce3d
000003e0: 70d4 c83d f0cb 723d 3d70 8cbe f1a3 7bbe
000003f0: 6ccd c93e 65d8 15be 0e0b 0a3e 338c 883d
-0.030033002 0.043242004 -0.18126494 0.17057872 -0.13575946 -0.1175399 -0.11212778 -0.022064244
-0.1367424 -0.011742638 -0.26593998 0.003631423 0.07938627 0.14806518 -0.24416977 0.055594347
0.2502019 -0.053386793 0.23799035 -0.00695054 0.21694782 -0.32718647 0.2025913 -0.07852684
-0.026051529 0.054530226 -0.017851114 -0.012700834 0.21256314 0.07445124 0.23673502 0.021262132
-0.30093813 0.13358118 -0.22791666 -0.13427997 -0.11279892 -0.19940273 0.042616207 0.19729167
-0.014457858 0.2079064 -0.17191727 0.17529482 -0.323369 -0.11401874 -0.24055652 -0.011052276
0.15374398 -0.11215353 -0.06693992 -0.12778877 -0.11645917 0.22061117 -0.083932206 0.11369897
-0.05842465 0.08297712 -0.21279731 0.08721293 -0.20247422 -0.18170486 -0.055679422 -0.12600558
0.08269555 0.15264125 -0.026268639 -0.5676637 0.020784795 -0.08784906 -0.0292609 -0.21069832
-0.36581212 -0.019119024 -0.5844172 0.41255915 -0.21485269 -0.12542231 -0.25010976 -0.3476167
-0.15997703 -0.7980081 -0.1612827 -0.0831264 0.5309371 -0.56809187 -0.6269994 -0.28964365
0.09104787 0.3003623 -0.1979671 0.55676055 0.50790304 -0.1491935 0.36454287 -0.2076431
0.07812405 0.3071595 0.39839098 -0.39277422 0.46645406 -0.04238469 0.2938033 0.22352315
-0.180176 0.23053029 -0.1122728 -0.1370047 -0.0057913573 -0.16253582 -0.3743159 -0.4022037
-0.21973401 0.029194547 0.29106045 -0.25883713 -0.037989013 -0.06185364 -0.09886633 0.43216842
-0.11379696 0.2676597 0.38829136 0.09523232 0.120926134 -0.22677587 -0.19197524 0.24596705
0.1299812 0.26447976 0.21236221 0.1719322 -0.06285048 -0.2150173 0.096916646 -0.19920109
-0.22471043 -0.08094785 -0.11997598 0.10367902 -0.014186292 -0.09938074 0.11324344 -0.24345364
0.041071564 0.0016807416 0.036186107 0.049774565 0.19860046 0.0026502288 -0.08727309 -0.21998125
-0.042607546 0.0009257989 0.025363492 0.21541591 -0.019188773 -0.0020795749 0.17001788 -0.036799643
-0.10168718 -0.17706837 0.13702658 0.10288473 0.16512732 -0.25585338 -0.004990994 0.08793304
0.06409004 0.305851 -0.052169487 0.16177823 0.19951086 0.024342159 -0.27815086 -0.054181155
0.12900823 -0.18208644 -0.015112883 0.037005294 -0.13709196 0.11987901 0.005950023 -0.01559828
0.20927735 -0.06881871 0.1227078 -0.2058539 0.0880176 0.060929768 0.036525685 -0.073107734
-0.034224622 0.1952833 0.29286164 -0.08991936 -0.06838072 -0.20678084 0.07276318 -0.08152477
-0.25554183 -0.20722622 -0.09982578 -0.10362695 -0.089076206 -0.33343357 -0.25736186 -0.035476707
-0.1243007 -0.2809504 0.2136775 0.06434729 -0.101137556 -0.029128177 -0.20089985 -0.19033292
0.11078066 -0.028725808 -0.027757239 0.22163527 0.16305093 0.034646507 0.480443 0.19063374
-0.1734811 -0.021031141 0.23115318 -0.17958431 0.2451204 0.10756229 -0.22321495 0.1291234
0.14324439 -0.006262625 -0.008905304 0.018759822 0.23963104 -0.038129136 0.0031987291 0.0009777985
0.17178687 -0.18782789 -0.14061747 0.051719964 -0.10081883 -0.088626176 -0.07478363 0.10098912
0.09806144 0.05927652 -0.2742938 -0.24574257 0.39414537 -0.14633329 0.1348078 0.06667366

lstm.weight_hh_l1 f4 [256, 64]
00000000: 3747 2abe b4c7 603e 9f1f 9d3e 155d 0d3e
00000010: 5dc4 9ebe b6b5 0c3e 710f 363e ca37 3b3e
00000020: 4af1 c9be 3f01 3b3e 23d4 95bc 4fdc 173e
00000030: 3852 a83e 1c5a 143e 1324 c13e 8eda 003e
00000040: 6419 76bd cca1 44be 6922 cd3e be7a 90be
00000050: a2ab a9be 169d e4bd 5fcc 5fbc bf72 22bf
00000060: 01e3 e8be a4d3 413e e719 543d 9e5c 3ebe
00000070: 6d5d f6bb eb23 43be d034 933e 7f55 bcbe
00000080: a4c2 b4bd 79ec 323e 673b 91be 05e8 1f3e
00000090: 36bc 02be dd8e a53e 9bc5 82be 1ea8 8e3e
000000a0: 952e c23e 43da 8dbe 1559 cc3e aa70 3bbe
000000b0: 6a1b 09be fa0e 19be b976 eebd 796c 21be
000000c0: 4645 fb3e e755 9b3e 7aeb e2be 3444 f6bd
000000d0: fa5e f83c 2df6 38be 9d86 80bd 75e5 7dbe
000000e0: 4c4f 1ebd 440d 643e 029d fcba 9e5d ffbe
000000f0: 13f4 f6bd 1c7c 86be 240b 863c 2b14 37be
00000100: 2bf1 acbe 4437 023b eea9 7f3e 75eb c53e
00000110: 6c39 d93b 1d90 47bd b7b6 c13c 5441 c83d
00000120: 0f00 3abe 872e 6abb a291 603e b9dd 82be
00000130: 2b03 153f f366 d3be 03ec 413e 4417 6b3e
00000140: c04f b1bc 8885 1bbe 0fca 823e 7eb5 f83d
00000150: 8139 713e d2e1 133e 658e 93bd dd1f 423c
00000160: b5cd 2cbf c241 c0bd b52f d33e b958 4d3c
00000170: 3c4d aa3d e925 c0bd a3d2 243e 35c6 ecbd
00000180: feee 98be 2f15 2b3e 042d bfbe 05f7 443e
00000190: 0ad1 e63d 9cad 28bd 0278 45bc 0c1b 4e3f
000001a0: b05c 3d3e c9d7 babd 3afc 883e 3fdd 6cbe
000001b0: f658 383e 51e1 adbd b9c8 ebbd faee b83d
000001c0: 08a2 c03d 3233 a43e 9d63 22bd b854 48be
000001d0: 346b 723d 358d 21be 86af 8fbe 897c 37be
000001e0: a971 223f d67d f1bd 7f8d 09be 63d6 52be
000001f0: 6c50 043d c4ca 18be f373 1cbe 0eec 12bf
00000200: 3c84 c5be 48ed db3e db49 a53e dff4 d63e
00000210: a507 d43c efc1 2e3e 44fb 683d eda0 373e
00000220: fd45 17bf f2f5 593e 86b9 663d 8f10 f0be
00000230: dc4d b63e e4d2 8bbe 1647 cb3e 4f5d 4b3e
00000240: efd3 83bd 7ff3 0cbf 9b80 c33e 6d19 fabd
00000250: 1667 cebd 24bc d3be ac0f 323e 9952 83be
00000260: 5736 febe 5dd9 663e d3be cc3e d725 9dbe
00000270: fd21 583e 3b64 8cbe 6bab e33e 807e 4bbe
00000280: 0974 c3be e219 023e 0ec1 83be 9449 04bc
00000290: 7ef6 59bd 4f53 ed3e edd2 01bf e51a eb3e
000002a0: 894b a93e 0cf7 8abe 67c1 9d3e 19a6 9cbe
000002b0: 93aa 1ebd 5404 77be ea10 8dbe b5fd debd
000002c0: 82e7 b63e f2fd aa3e 6072 db3d 5840 00bf
000002d0: 613c 0b3e 9311 27be d82c 92be 0862 bdbe
000002e0: 73d7 613e b092 353b 02ed 243b bc4c ccbe
000002f0: 2b53 85bd c96c b8be b855 4ebe 6a40 93be
00000300: cf6b 8dbe b95f b53e 67df ac3e 7428 873e
00000310: 1fda 81bd f582 943d 46d8 973e ce0a 113e
00000320: 430a ddbe 260d e73d 6db2 da3d 6afa 09bf
00000330: f9ba cd3d e137 64be 61a0 653e 6b59 683e
00000340: b9fe 493d 1f15 adbe 10d0 8c3e 9174 0cbe
00000350: dff6 ac3d 440a 32be 27dd cb3c d385 11bf
00000360: 981d 1abf 6726 583e 1881 913e 953d b4be
00000370: 541c 3d3e 0c53 51be 0eea 803e 8bee 8cbe
00000380: 2247 c4be d145 d7bd 06ff ddbd 3288 db3d
00000390: 2b26 0cbc 6bb4 a03e 3be7 e2be 880c aa3e
000003a0: 5732 ca3e 3a43 5ebd a773 023f f136 a5be
000003b0: 6840 1e3d 6675 34bc e85a a9be 519c e2bd
000003c0: 6b7d 803e f3cd 2e3d 3a55 e53d 21a0 bdbe
000003d0: cb57 3c3e 48df 88bd 5d13 56be 3fb9 febd
000003e0: 568e 273d 053f 6ebd a5b1 e03d 6a6f 0abf
000003f0: c629 94be 4a55 aebe 4a74 29bc 63d4 cebe
-0.16628729 0.2195118 0.30688187 0.13805039 -0.31009188 0.13741192 0.17779328 0.18283
-0.394419 0.18262194 -0.018289631 0.14830135 0.32875228 0.14487499 0.37722835 0.12583372
-0.060082808 -0.19202346 0.40065315 -0.28218645 -0.33138758 -0.11162774 -0.013659566 -0.6345634
-0.4548569 0.1892839 0.051782515 -0.18590018 -0.0075184614 -0.1905667 0.2875123 -0.36783978
-0.08826187 0.1747302 -0.28365633 0.15615852 -0.1276711 0.3233556 -0.25541386 0.27862638
0.37926164 -0.27705583 0.39911714 -0.18304697 -0.13389364 -0.1494712 -0.11643738 -0.15764035
0.4907629 0.30338976 -0.4432028 -0.120247275 0.030318726 -0.18062659 -0.062756754 -0.24794562
-0.038649842 0.22270685 -0.0019272866 -0.49876112 -0.12058272 -0.26266563 0.016362734 -0.17878787
-0.33777747 0.0019869367 0.24967167 0.38656202 0.0066291597 -0.04872142 0.023646696 0.09778085
-0.18164085 -0.00357333 0.21930555 -0.25559786 0.5820796 -0.41289482 0.18937688 0.22958094
-0.021644473 -0.15187657 0.25544783 0.12143992 0.23557092 0.14441612 -0.07204894 0.011848417
-0.67501384 -0.09387542 0.41247335 0.01253336 0.083155125 -0.09382231 0.16095977 -0.115612425
-0.29869837 0.167073 -0.37339032 0.19234855 0.1127034 -0.04118119 -0.012052538 0.8051002
0.18492389 -0.09123189 0.26754934 -0.23131274 0.18002686 -0.08490241 -0.11512894 0.09029956
0.09405905 0.3207031 -0.03964578 -0.19563568 0.059184268 -0.15776522 -0.280636 -0.179186
0.6345468 -0.117915794 -0.13432883 -0.20589595 0.03230326 -0.14921099 -0.15278606 -0.5739144
-0.3857745 0.4295447 0.3228291 0.41983697 0.025882551 0.17066167 0.05688025 0.17932482
-0.5909117 0.21285227 0.056329273 -0.46887633 0.35606277 -0.27309334 0.39702672 0.19859813
-0.064369075 -0.55059046 0.38184056 -0.12211881 -0.10078256 -0.41354477 0.17388791 -0.25648955
-0.49650833 0.22543855 0.39989337 -0.30692932 0.21106716 -0.2742022 0.4446672 -0.19872475
-0.38174465 0.12705186 -0.25733227 -0.008074183 -0.05321359 0.46352622 -0.5071247 0.45918956
0.3306544 -0.27141607 0.30811617 -0.30595472 -0.03873689 -0.24122745 -0.27551967 -0.108882345
0.357235 0.3339687 0.10715175 -0.5009818 0.13597251 -0.16315298 -0.28549838 -0.36988854
0.22054844 0.002770584 0.0025165682 -0.39902294 -0.06510004 -0.36020496 -0.20149887 -0.28760082
-0.27621314 0.35424593 0.33764192 0.2639805 -0.063404314 0.072515406 0.2965719 0.14164278
-0.43171892 0.11281805 0.10678563 -0.53897727 0.10045428 -0.22286941 0.22424461 0.2269036
0.049315188 -0.33805177 0.2750249 -0.13716342 0.084455244 -0.17386729 0.024885727 -0.56844825
-0.60201406 0.211084 0.28418803 -0.35203233 0.18467838 -0.20441836 0.2517857 -0.27525744
-0.3833552 -0.10511363 -0.108396575 0.107193366 -0.008554022 0.31387648 -0.4431704 0.33212686
0.3949153 -0.05426333 0.5095772 -0.3226848 0.03863564 -0.011014318 -0.33077168 -0.11064971
0.25095686 0.042676877 0.11197896 -0.3703623 0.18392865 -0.066832125 -0.20905824 -0.12437677
0.040907227 -0.05816557 0.10971383 -0.54076254 -0.2893812 -0.34049445 -0.010342667 -0.40396413

lstm.bias_ih_l1 f4 [256]
00000000: 6dfc bbbe 66b5 1bbe bf95 f6be 8c1e 9cbe
00000010: 0051 c2be 2f43 2cbf 79ac 1abf 75cb 27bf
00000020: 8b8d 2f3e a9a6 5ebf f3fe 79bf 771f 81be
00000030: cfc2 57bd 5cc2 e9be e5ec 07bf 613a 54bf
00000040: 87fe 4bbf 73b9 cabe bd2a 86be 87a1 34bf
00000050: 31b0 18bf 4b71 90bd daa6 373d d233 97bc
00000060: 11e1 48be b860 67bf ad8c 13bf 3754 b9be
00000070: 894f 6fbf 0116 3ebf 3188 83be d6c7 f3be
00000080: 37f7 66be 1f03 f9bc b4de 98be a77f 92be
00000090: 3375 52bf 39aa b0bd 316b 073e 5cf3 bebd
000000a0: 3726 dcbe ec53 2bbf bf2f 1dbf d5c8 01bf
000000b0: 5874 20bf 4cd1 8cbf bdb1 633c 66e4 8abf
000000c0: 40bb bebe b241 1dbf d057 253d 317e cfb9
000000d0: b510 7bbf 83fe b8be 3440 8dbe 371b 3dbd
000000e0: b20e 06be ac46 16bf 8be4 48bf 052b e8be
000000f0: f40a 56be 9e33 33be f91e 72bf 9cb7 edbe
00000100: 3fb5 4dbe ec62 9a3e 1733 8abe 7b57 5dbc
00000110: ba90 31bf 8fb6 adbe cf5d 8ebe f67a c5be
00000120: a784 533e 0d2d c0be 3441 e2be cbcd 2abd
00000130: aa6d c8bd c554 54be 61c5 cbbe 46b4 14bf
00000140: 9ea7 01bf d97a 4bbe 63b1 81be 8858 d9be
00000150: 7e1d f6be 4355 343e 7e63 a4bd fc85 e0bd
00000160: e89a 4bbe 2982 9ebe a434 92be dcdf b0bd
00000170: 8ecc b9be e362 d1be ad83 03be d760 79be
00000180: d977 a0bb 4610 983e 2fb5 04bb 1cca b4be
00000190: e2ab 9cbe 86af de3b b863 423d 329a 0d3e
000001a0: 3cdb 1cbe c2ab cdbe 4d13 e4be bcbf cdbe
000001b0: 7441 b3be 8e0d dbbe 191c d2bd 2dbd 0bbf
000001c0: 63a2 d1bd f0e7 cdbe 1e79 753e 60dc 1d3e
000001d0: 942f f7be fc61 6fbe d7ee fdbd 0aed 373e
000001e0: e5d6 d9bd cc85 9ebe ef73 91be bbb8 94be
000001f0: 5bd8 27bd 5abd a4bd c64c 97be ddf0 06be
00000200: 21be b8bd d736 1fbe 027a 46bd 4604 053d
00000210: 407a c7ba 9474 a9bd 0807 dcbd 0867 a4bd
00000220: 2c2e bb3e 44f8 bebc ad05 0fbd 0e24 ed3c
00000230: 2565 bf3d ad9e c33c f4ca 02be 27b4 653d
00000240: 8951 56bd 24e7 af3c f550 10be a59d 3a3d
00000250: 0b9c c93d 7feb e8bc 2228 a13d f63a 0c3e
00000260: f42f 2cbd b0ef a63b d0c0 cf3b f879 043e
00000270: edf4 96bc aa8e 5ebc 62cb 63be 7929 dc3c
00000280: 61d2 8d3d 6201 d5bd 1ebe 213e 635f 0dbe
00000290: a6d1 9a3d 5fa5 9abe 0ed1 aa3e f512 e8bd
000002a0: 45b7 48bd 45c2 923d 8f10 cebd a615 2a3c
000002b0: 16ef 2d3d 8855 eebc ff9a 18bd e786 a13c
000002c0: 448a 11be c426 0fbe 1396 863d 8e25 8a3e
000002d0: fd84 6fbc 487f 8b3d 6fdd 0cbd 4882 733e
000002e0: 02b7 3c3d 2b68 8bbd a9dc f3b9 91f6 343e
000002f0: 93c8 323c 735a 3e3e 1bff 1c3d d4f4 55bd
00000300: a2a0 00bf 404f 46bd d423 0fbf 72fe e0be
00000310: 5096 fabe 8f69 27bf 9f19 12bf 9949 f2be
00000320: a531 febb 0f8e 50bf 2c91 73bf 858d a0bd
00000330: 3d4c 64be d769 dbbe bcab 1fbf f37c 4bbf
00000340: 0b0f 61bf 34c2 b2be 5bc9 88be 9308 45bf
00000350: 40f8 17bf 8283 9bbe 0bcf 49be 12d9 1b3d
00000360: 4dbb 42be 73b9 4cbf 8087 00bf d8a4 b6be
00000370: 5a72 60bf be7c 11bf 1116 74be 14df 02bf
00000380: bd42 19be b3df 2d3e eb1d 77be e874 e7be
00000390: d2ff 3ebf 3199 90bd 20de 1bbe 65e5 523d
000003a0: 0490 7ebe b764 f0be e14b f3be 9e3f 1abf
000003b0: 1093 2cbf d299 88bf dafd e9bb 7afa 65bf
000003c0: 6988 e0be 9ba0 13bf 47e0 e4bd 450b 903d
000003d0: bad7 4dbf 07d2 05bf afc4 bbbe 6912 c13c
000003e0: 0209 9fbe ac8d 28bf 51ed 39bf b358 a6be
000003f0: 2750 b7be 70de 66be a53a 62bf 99a4 b9be
-0.36716023 -0.15205917 -0.48161122 -0.30492055 -0.37952423 -0.67290014 -0.6041942 -0.65544826
0.17143838 -0.86973053 -0.97654647 -0.25219318 -0.05267602 -0.45656097 -0.5309585 -0.8290158
-0.7968525 -0.39594612 -0.26204482 -0.7055897 -0.59643847 -0.07052859 0.044836856 -0.018457327
-0.19617106 -0.90381956 -0.5763653 -0.36197063 -0.93480736 -0.74252325 -0.25689843 -0.476134
-0.22555242 -0.030396996 -0.2985741 -0.28613016 -0.8221008 -0.086262174 0.13224484 -0.09323761
-0.42997906 -0.6692493 -0.6140098 -0.5069707 -0.62677526 -1.1001372 0.013897357 -1.0850952
-0.37252235 -0.6142837 0.040366948 -0.00039576137 -0.9807237 -0.36131677 -0.27588046 -0.046168532
-0.13091543 -0.58701587 -0.7847373 -0.4534532 -0.20902616 -0.17500159 -0.9457851 -0.46429145
-0.20088671 0.30153596 -0.26992103 -0.0135096265 -0.6936146 -0.33928344 -0.27805945 -0.38570374
0.20656072 -0.3753437 -0.4419037 -0.041700166 -0.09786542 -0.20735462 -0.39799026 -0.58087575
-0.5064639 -0.19871081 -0.25330648 -0.42450356 -0.48069376 0.1761065 -0.08026789 -0.109630555
-0.19883311 -0.3095868 -0.28555787 -0.08636448 -0.36288875 -0.40895757 -0.12843199 -0.24353348
-0.0048970995 0.29699916 -0.0020249595 -0.35310447 -0.30599886 0.0067958264 0.04745838 0.13828352
-0.15318006 -0.40170103 -0.44545975 -0.40185344 -0.35010874 -0.4278378 -0.102592655 -0.54585534
-0.10236051 -0.40216017 0.23971984 0.15416098 -0.48278487 -0.23377222 -0.12399071 0.17961517
-0.10636691 -0.30961454 -0.28408763 -0.29047188 -0.040977817 -0.080439284 -0.2955076 -0.1317782
-0.09020639 -0.15548263 -0.0484562 0.03247478 -0.0015218928 -0.08274189 -0.107435286 -0.08027464
0.36558664 -0.023311742 -0.034917522 0.028947856 0.09345464 0.023879373 -0.12772733 0.05608001
-0.05232385 0.021472521 -0.14093383 0.045560498 0.09844216 -0.028432606 0.07868983 0.13694367
-0.04203792 0.005094491 0.0063401237 0.12937152 -0.018427337 -0.013583818 -0.22245553 0.026875244
0.06924892 -0.104006544 0.1579518 -0.13805918 0.075595185 -0.30204293 0.3336262 -0.11331741
-0.049002904 0.0716596 -0.10061752 0.010381138 0.04246434 -0.029093519 -0.03725719 0.019717647
-0.142129 -0.13979632 0.06571593 0.26981777 -0.014619109 0.06811386 -0.034390863 0.23780167
0.046072967 -0.06806978 -0.00046512976 0.17672183 0.010912078 0.18589191 0.038329225 -0.05223544
-0.50245106 -0.048415422 -0.55914044 -0.43944126 -0.48942804 -0.65395445 -0.57070345 -0.47321776
-0.007757383 -0.81466764 -0.9514339 -0.07839493 -0.22294708 -0.42854187 -0.6237142 -0.7948753
-0.8791358 -0.3491379 -0.26716122 -0.7696621 -0.59363174 -0.3037377 -0.19707887 0.03804881
-0.19016762 -0.79970473 -0.50206757 -0.3567264 -0.87674487 -0.56830966 -0.23836543 -0.5112164
-0.14966865 0.16979866 -0.24132507 -0.4520638 -0.746091 -0.07060469 -0.15221453 0.0514883
-0.24859625 -0.4695184 -0.4751883 -0.6025332 -0.674119 -1.0671942 -0.007140857 -0.8983532
-0.43854073 -0.5766694 -0.1117559 0.070333995 -0.804073 -0.522736 -0.36673495 0.023568349
-0.3106156 -0.65841174 -0.7262774 -0.32489547 -0.3580334 -0.2254579 -0.88370734 -0.3625839

lstm.bias_hh_l1 f4 [256]
00000000: f3da d0be a6c8 31be 1f7a 13bf 4593 a9be
00000010: 32d2 15bf 9499 31bf ff6b 3bbf fcf0 07bf
00000020: 5fbc 3d3e 25a8 62bf ffbe 87bf fd3f 8abe
00000030: da92 03be fe4f e7be 431d 29bf 3db6 37bf
00000040: 2f44 4abf a70c c6be fbf8 b5be 7704 3abf
00000050: dfe0 19bf 3cbb 19be 98d3 053e 51ea 61be
00000060: ee0c c1bd 36e3 33bf 6b18 0abf 63f6 bbbe
00000070: b69d 70bf 9e8b 19bf 4312 57be 88f5 05bf
00000080: 3943 a0be 8241 513e cc16 adbe 10e4 acbe
00000090: 6513 3fbf 3cff 2e3d 4b62 813d 3f7b a0be
000000a0: 9580 88be 0189 30bf 313e fabe 08c3 1bbf
000000b0: b50e 0abf 5342 74bf 149a f73d cd60 81bf
000000c0: d9bc 8fbe ea35 2ebf ff9b 80bd f431 92bd
000000d0: a3e3 54bf 93c7 f1be 85dc 73be 6f97 0bbd
000000e0: c408 1fbe a801 33bf ab3d 62bf a348 b1be
000000f0: fb2b d2bd 2409 25be 2f9e 7dbf ecdf cdbe
00000100: b7eb 2fbe 6ab1 9a3e 3e44 8fbe 88ee 633d
00000110: 3698 3cbf a21a 75be 9a8f 5bbe eca3 8abe
00000120: 2fa2 133e 6528 d5be 66a9 03bf c77d 1c3e
00000130: 3626 8e3d 3b84 b3be 766c aebe ce4a febe
00000140: 0fa8 dcbe 08ed 96be 7e53 8cbe 3514 02bf
00000150: 250c 01bf 1e6d ad3d 9229 9ebd 8239 3e3d
00000160: 293b 91be 5300 babe ac23 8fbe 3ee5 89be
00000170: 1c4f d5be a79f 98be 9abb 3cbe 25f8 b6be
00000180: 28d1 e73c 8ede 173e 0901 8abb 6281 f0be
00000190: 7874 94be f79f 253e 3025 3b3e be54 9dbd
000001a0: baef 1bbe c0ec 85be 1911 abbe 8662 9cbe
000001b0: e68c 4cbe f0cf cabe aca4 4ebd c4a2 dabe
000001c0: 9f91 cdbd 873f 78be aa3c 573d 0222 683e
000001d0: 5c96 afbe 18a6 9ebe 6e81 f9bd 08ac 723e
000001e0: 42c9 603d 3aea b5be 650d f2be d768 efbd
000001f0: c844 55bd 5491 35be 7434 88be 6db9 24bd
00000200: 197f a53c 19c8 24be 4477 0abe f745 2dbe
00000210: 5fd1 00bd fa38 aebd 1846 c9bd fec8 8dbd
00000220: 3866 d93e e98f 7a3d bd61 2d3d c266 d73d
00000230: 8b75 8d3d c3d6 8a3d e902 bb39 78ab cfbc
00000240: fd57 51bd 28a3 183e 2a48 31bd 4429 a73d
00000250: 0543 9cbb a426 4b3e e983 1cbe 5a02 4e3e
00000260: 5be1 9d3d 9c7b a5bd a588 8dbd 8c83 4e3d
00000270: 7c11 67bd 8361 343d 671b efbd b1ce 063e
00000280: 56c7 803d b7b2 0fbe ec88 54ba fc3d b93d
00000290: 6b26 cd3b a9bb 04be e62a 8d3e 0ff9 a0bd
000002a0: 7308 4cbe 8a67 fd3d bcd3 93ba 1ac7 033d
000002b0: e569 dc3d 6e0a 8a3d 6982 e5bd ee75 773d
000002c0: e9f2 86bd 0b1c 6d3c eb39 983d 10ea 023e
000002d0: 7d4f 2cbc e77b 033d bf39 683d ca23 373e
000002e0: b7c2 c63c 3702 90bd 392d aabc bacd c63c
000002f0: e750 a83d 3762 653e 9e3b 643c 351f e03d
00000300: d0fb 93be 66db 353d af5b 1bbf a753 01bf
00000310: cdd0 19bf 97b8 2ebf 167d 06bf 678f efbe
00000320: 3f24 823c 87b1 2ebf 227e 5ebf 1e8d 91be
00000330: b3ac 72be 7c7e 21bf 452b 25bf 732a 35bf
00000340: 9108 58bf 029e c2be 1483 b5be a46e 4bbf
00000350: 2d47 21bf 0419 94be d596 00be ebdf d6bd
00000360: f15b 38be 5138 62bf b5ff fabe 2e26 98be
00000370: 5031 7bbf 9723 4abf 811d 93be 32a6 d7be
00000380: cd75 aebe d6c2 d3bc 6165 56be 6c8c f8be
00000390: 00f8 55bf 10f9 a4bd fc04 efbd a112 7dbd
000003a0: 5ad4 8dbe cbcf 0bbf d1d3 e4be 8406 0ebf
000003b0: 4c92 3dbf f83d 73bf 8d3b e0bd e48f 72bf
000003c0: cb13 b8be c5fd 3ebf b5ad f0bd ef1e 3fbd
000003d0: 7ea0 76bf 172a c9be 18b7 90be 484c 903d
000003e0: 6ae0 6abe 0333 0fbf 9d39 43bf 612d b4be
000003f0: 19d2 dabe e00b 4bbe d78e 66bf 4be0 dfbe
-0.40792045 -0.17361698 -0.57608217 -0.3312017 -0.5852386 -0.69374967 -0.73211664 -0.5310209
0.18528889 -0.8853782 -1.0605162 -0.27001944 -0.12848988 -0.45178217 -0.66060275 -0.7176245
-0.7901029 -0.38681528 -0.3554152 -0.7266306 -0.6010875 -0.1501283 0.13068998 -0.22062041
-0.09426294 -0.7026857 -0.5394351 -0.36711416 -0.9399065 -0.59978664 -0.2100306 -0.52327776
-0.31301287 0.20435145 -0.33806455 -0.33767748 -0.7463897 0.04272388 0.06317576 -0.3134403
-0.266606 -0.6895905 -0.48875573 -0.6084447 -0.5392869 -0.954137 0.12089935 -1.0107666
-0.28073767 -0.68051016 -0.06279754 -0.07138434 -0.83159846 -0.47222576 -0.2381459 -0.034079965
-0.15530688 -0.699244 -0.8837535 -0.3462573 -0.10262295 -0.16116768 -0.99069494 -0.402099
-0.17179762 0.3021348 -0.27981752 0.055647403 -0.73669755 -0.23935941 -0.21441498 -0.27078187
0.14417337 -0.4163238 -0.51430357 0.15282355 0.06940882 -0.3506182 -0.34067124 -0.49666446
-0.4309697 -0.29477715 -0.2740745 -0.50812083 -0.50409156 0.08468078 -0.07722773 0.046441562
-0.28365448 -0.36328372 -0.27956903 -0.2693271 -0.41661918 -0.29809305 -0.1843094 -0.35736194
0.028297976 0.14830992 -0.004211549 -0.4697371 -0.2899511 0.16174303 0.18275905 -0.07682179
-0.15228167 -0.26157188 -0.33411482 -0.30543917 -0.19975623 -0.3961177 -0.050450012 -0.42702305
-0.10037541 -0.24242984 0.052548088 0.22669223 -0.34294403 -0.30986094 -0.1218289 0.23698437
0.054879434 -0.35530263 -0.47275844 -0.116899185 -0.052067548 -0.1773122 -0.2660252 -0.0402159
0.020202206 -0.16091956 -0.13522059 -0.1692122 -0.03144967 -0.08506961 -0.098278224 -0.06923102
0.424608 0.0611724 0.04232954 0.10517646 0.06907185 0.06779244 0.00035669588 -0.025350317
-0.051109303 0.14905989 -0.04328171 0.08162168 -0.0047687315 0.19838959 -0.15284695 0.20118085
0.07708999 -0.08080217 -0.069108285 0.05041842 -0.05641316 0.044038307 -0.116751485 0.13164784
0.0628802 -0.14033018 -0.0008107561 0.09045026 0.0062606833 -0.12962212 0.2757179 -0.07860004
-0.19925098 0.12373264 -0.0011278312 0.0321723 0.10762385 0.067402706 -0.112065144 0.0604152
-0.065893 0.014472018 0.07432922 0.127846 -0.010516998 0.032100584 0.056695696 0.17884746
0.02426277 -0.070316724 -0.020773517 0.02426802 0.08218556 0.22400747 0.0139302295 0.10943452
-0.28903055 0.044398688 -0.60686773 -0.5051827 -0.6008423 -0.6825041 -0.52534616 -0.46789095
0.015886424 -0.68239635 -0.86911213 -0.28427976 -0.23698692 -0.63083625 -0.6451915 -0.707679
-0.8438807 -0.38011175 -0.35451567 -0.794657 -0.6299923 -0.28925335 -0.12557538 -0.10491928
-0.18003823 -0.8836718 -0.49023214 -0.2971663 -0.9812212 -0.78960556 -0.28733447 -0.42118984
-0.3407425 -0.025849741 -0.2093711 -0.48544633 -0.8358154 -0.080553174 -0.116708726 -0.061785344
-0.27701074 -0.5461394 -0.44692853 -0.5547869 -0.74051356 -0.9501643 -0.109488584 -0.9475081
-0.359526 -0.7460597 -0.11751882 -0.04666036 -0.9633864 -0.39289925 -0.2826469 0.070457995
-0.2293717 -0.5593721 -0.76259786 -0.3519087 -0.42738417 -0.19828749 -0.90061706 -0.4372581
