models/weights models/Consumo_energetico_gru_modelPytorch.pth (torch, 158390 bytes, 9 tensors)

gru.weight_ih_l0 f4 [192, 5]
00000000: 2a9b 053d 0eba 02bc 28a6 853c 40c3 9bbe
00000010: f1f8 443e 0294 09bd 7f17 d23f 2d06 4cbc
00000020: 864a 853d 499b cabe 7444 6cbe 6562 08be
00000030: 30f3 b13b 3eb0 20be 164a f5be 41f4 d3be
00000040: c599 a7be b92f f1bd b646 53be 2f15 e4be
00000050: 969f 6abe 0013 88be da93 5abd 19a4 2b3e
00000060: adc2 1a3e 7277 29bd 65bf de3e a99f 1b3e
00000070: 3e24 4cbd de70 4fbe b937 c7be 21ee 29be
00000080: 7c91 e9bd 5ee8 9dbd c22a 23be edfd 483e
00000090: 5072 cdbd 49d1 b3bd 4255 b9bf f58d 9c3e
000000a0: f522 843d dfef 73be e8e9 32be ebbd 94be
000000b0: 16f2 22be 8048 f0be 1df0 48bd 6029 16bf
000000c0: 4c12 22bc ea01 2d3f fecb d3be bbec 7cbe
000000d0: d119 4bbe 968d cebe 3633 0d3c 0f3f 18be
000000e0: 4adb 843f c42a 7d3e 1b69 cbbd 337f a3be
000000f0: 6448 f9be f94d a8bd 9be9 9bbe 811f acbe
00000100: 4b7c 20bd 208c 14bf bf5a 10bf 58c9 aabe
00000110: f69f 7dbe 725a b0be 6767 c7be a683 08bf
00000120: 3ddc 51bf 7795 38be 85e5 193e 3ecf b43b
00000130: 90ad 353c 75e9 d03d ddb0 57be 4325 5c3e
00000140: 2b99 bfbe 12b4 20be 1894 12be a764 9abe
00000150: a983 bdbe 683e 1c3d 55d1 33be 3adf 65be
00000160: 5a6a 023e 5955 d3be 52ab 81be a83f de3d
00000170: 6db9 08be 2e71 c9be ce96 c8bd ae9f 1abe
00000180: 256d b5be 46b5 95be 1f5b 92be 7d8f 4abe
00000190: 593a 1fbf 6a18 aabe 0170 5fbe 8c18 17bf
000001a0: dad8 2abf 831e f2bd 2caf a0bd 3c29 8cbe
000001b0: 3e64 a0bc fb30 dcbe 67f5 3cbe d49e 0d3e
000001c0: 1a0c 6e3c 0071 e1be ea6a 90be c6b6 8cbe
000001d0: aa78 93be a15f 56be 67c1 e93e c149 febe
000001e0: bd6b 98bd e0df 343f 918e 57be 8f96 8ebc
000001f0: 4bf6 783e 02c0 d2be 5163 9dbe dad3 ebbe
00000200: 47cf adbe 6845 e5be 6ffd 89be 0117 a8be
00000210: 6c12 37bd 76db 10be 133f 21be ba75 dcbc
00000220: 0615 163e 1e71 153d 9a88 803c f496 09be
00000230: 1902 0cbe 19ce 6fbe 23bf 063e 3039 043f
00000240: 1e10 c1bf 7ed1 c3be 29e2 03bf 5f43 fabb
00000250: 3708 a83d e486 ee3c aaac 743c 8f7e e9bd
00000260: 8ea9 32bd 56da 90be e822 79bb 0096 c1bd
00000270: ab8a 0fbf 5ff3 60bd 5e85 76bd b275 783d
00000280: f0e0 8dbe 4d1d 7cbc 4670 863c 9570 bdbe
00000290: a674 67be 56cd ebbe ae12 38bf b691 e1bd
000002a0: b02e d9bd 1e97 2ebf fef3 a9be f348 46be
000002b0: 1ac6 b6be a99d 7fbe 6d3c e5bd dcd9 a5be
000002c0: 2dbf 33be 8dd7 43be adfc 0ebe bcf2 3cbf
000002d0: cf3a 62bd 0c89 81be 9c09 c33d af54 cbbd
000002e0: aff0 22be 0800 1abf 33fc 56be 7dcf 20bf
000002f0: 0a70 bebd dc3b 4abf d7ae a6be 6cf0 ffbe
00000300: be39 593e bb91 e2bd 9977 d7be d9c3 12bf
00000310: ef4b 72be 7d3b abbe 3995 dabe 0d4d ddbe
00000320: 0789 9abd 5e82 c9be f12f 9a3e 906a c2be
00000330: 6bb9 40be 015f 14be f137 b6bd 119f 23be
00000340: 7289 8ebd d57e c7be a3c2 0fbe 0b72 1cbf
00000350: acbd 2f3d 07fb 88bd fe6d 2abe c83c 4ebe
00000360: b357 14be 1dad 93bc 5b1d 283c d118 cebb
00000370: bb64 42be f1b3 52bf c5b8 94be 1a99 d03c
00000380: 497e f4be c985 bebe 043e b2be 2d9f be3b
00000390: a6fa bbbe 7d7c 74be 0e13 bbbe 3bc1 aebe
000003a0: c9fb 18bf af95 12bf 48f8 e6be 7c5e 9fbe
000003b0: 901f 87be b4e7 9fbe cba3 34be cf02 2cbf
000003c0: 1bb5 5fbe 88c4 0cbe b86f 55be 79d4 593d
000003d0: 1fb9 00bd e1cb 8abe 65fc 4abe 3272 42be
000003e0: 7e08 96be cf19 30bf 42a6 18bf 8ae3 00bf
000003f0: 8d3b 80be c1fc b3be d794 1e3e f27a c6be
0.03261868 -0.007978929 0.016314581 -0.304224 0.19235589 -0.033588417 1.641342 -0.012452644
0.06508355 -0.39571598 -0.23072988 -0.13318785 0.0054306015 -0.15692231 -0.47908086 -0.41397288
-0.32734504 -0.117766805 -0.20632443 -0.44547412 -0.2291244 -0.26576996 -0.05336366 0.16761817
0.15113325 -0.041373678 0.43505397 0.15197624 -0.04983925 -0.20257899 -0.389097 -0.16594745
-0.11404702 -0.07710336 -0.1593428 0.19628115 -0.10031569 -0.08780152 -1.4479144 0.30577055
0.0645198 -0.23821972 -0.1747204 -0.29051146 -0.15912661 -0.46930313 -0.049057115 -0.58656883
-0.009892058 0.67581046 -0.4136657 -0.2469968 -0.19834067 -0.40342396 0.008618167 -0.14867805
1.0379422 0.24723345 -0.09932157 -0.31932983 -0.48688042 -0.08217997 -0.30451664 -0.33617786
-0.039181035 -0.58026314 -0.5638847 -0.33356738 -0.24768052 -0.34444004 -0.38946077 -0.5332588
-0.8197668 -0.18025766 0.15028961 0.0055178693 0.011088744 0.102007784 -0.21063562 0.21498589
-0.37421545 -0.15693691 -0.14314306 -0.30154917 -0.3701451 0.038145453 -0.17560323 -0.22448435
0.12735882 -0.41276053 -0.2532602 0.10851985 -0.13351984 -0.39344162 -0.09794389 -0.15099975
-0.35434833 -0.29239863 -0.28585145 -0.19781299 -0.62198406 -0.3322175 -0.2182007 -0.5902183
-0.6673714 -0.11822226 -0.078459114 -0.2737521 -0.01957905 -0.4300612 -0.18452989 0.1383012
0.014529252 -0.44031525 -0.2820657 -0.27483195 -0.28802997 -0.20934917 0.45655367 -0.49665645
-0.074424244 0.70654106 -0.21050479 -0.017405776 0.24312703 -0.41162115 -0.30739835 -0.46060067
-0.33947203 -0.44779515 -0.26951167 -0.3283005 -0.044695303 -0.14146218 -0.15746717 -0.026911605
0.14656457 0.03648483 0.015690137 -0.1343649 -0.13672675 -0.23418464 0.1315885 0.5164976
-1.5083044 -0.38245767 -0.5151697 -0.007637426 0.08204692 0.029117055 0.014933744 -0.11401092
-0.04361873 -0.28291577 -0.003801519 -0.09452438 -0.56070966 -0.054919597 -0.060185783 0.060659118
-0.27710676 -0.015387845 0.016410958 -0.36999956 -0.22603092 -0.46055096 -0.719035 -0.1101412
-0.10604608 -0.68199337 -0.33193964 -0.19363765 -0.35698014 -0.24962486 -0.11193166 -0.32392776
-0.17553397 -0.19125195 -0.13963576 -0.73807883 -0.055231865 -0.2529987 0.09523317 -0.099282615
-0.15912126 -0.601563 -0.20994644 -0.628166 -0.092987135 -0.7899759 -0.32555267 -0.49988115
0.21213433 -0.11062952 -0.42083433 -0.5733009 -0.23661779 -0.33443823 -0.42691973 -0.43222848
-0.07545667 -0.39357275 0.301147 -0.37971926 -0.18820731 -0.14489366 -0.08897389 -0.15978648
-0.06959809 -0.38963953 -0.14039092 -0.61111516 0.042905495 -0.06688505 -0.16643521 -0.20140374
-0.1448658 -0.018026883 0.010260905 -0.0062895794 -0.18983738 -0.8230582 -0.29047218 0.02546363
-0.47752598 -0.37211445 -0.3481294 0.005817315 -0.36714667 -0.23875614 -0.36537975 -0.34131798
-0.59759194 -0.5725965 -0.451113 -0.31126773 -0.26391268 -0.31231463 -0.17640607 -0.67191786
-0.2184643 -0.13746846 -0.20843399 0.053181145 -0.031426545 -0.27108672 -0.19822843 -0.18988875
-0.29303354 -0.6878938 -0.5962869 -0.503472 -0.25045434 -0.35153773 0.15486465 -0.38765675

gru.weight_hh_l0 f4 [192, 64]
00000000: fabc 0e3f 3342 803e b63a 4a3e 3941 d53d
00000010: d68d b5be 9402 8e3d f228 ec3d 8e00 293d
00000020: d8d5 debe f9c4 51be 3692 41be 2f8b e5bd
00000030: 4bee b33c b4b3 f1bd 3801 24be b632 ff3c
00000040: 8b58 15be bfe5 083e a206 f83d 42b8 8ebe
00000050: 991d f4bd 1ecd ed3d 0b8a 373e ba88 08bf
00000060: ff29 833e 1bb4 053e c106 debd eacc 03be
00000070: 2614 b1bd a5ec e13d 18e3 ea3e 4dd9 0cbd
00000080: aa56 babd 03d8 8cbe 36f0 c43e 9088 a63d
00000090: f6dd 03be a665 e13e 768a f63d c50e 073d
000000a0: 88b2 91be 961a 0c3e 1b8d fc3d d642 6b3e
000000b0: 6672 733e fa9c 7f3e 8872 a7be e181 53be
000000c0: 3099 0dbe 34ff 17bd 926d bbbe 3e8b b33d
000000d0: 4248 77be bc3e b8be 5be0 013e 10a5 543e
000000e0: 118f 3ebe 8773 5c3e cd36 40be 3e33 9cbe
000000f0: 14c6 81be 9d88 583d 35f1 82be f2c9 83be
00000100: 2a28 68be dc00 70be c9f7 033e 1ee0 3cbf
00000110: 2d95 70bf 90ba d8bf a01e 1d3f 733e cfbf
00000120: 7df0 54bf c735 73bf 0b3a 5b3f ed52 aa3f
00000130: 7c99 7a3f 3b27 34bf 607f 043e 82b1 f0bf
00000140: 6faf 73bf 1526 873f 4159 eb3f aba1 d0be
00000150: 602b 3abd 7d0b 34be a469 21bf 9c30 253f
00000160: dc1f b0be d326 b1bf 9843 4c3f a863 c0bf
00000170: de2a 8dbe d5a8 b3be 0e60 26bf c642 463f
00000180: 6bfc 6b3f 74f4 fbbe ca36 c63e faa7 923f
00000190: 22d0 60be 32f6 94bf 9a5b bbbe 9452 8cbf
000001a0: 6d3b 8dbf 67f2 e43e 7ace 8b3f 0b81 2b3f
000001b0: e7c3 823e 38cb 243f ddc1 e03e 64d3 e2bf
000001c0: 524e aabf a3ac 953f 56bc 74bf 6f4e f6be
000001d0: 970a 4ebf a44e f03e faa7 afbe 65ea 473f
000001e0: 52d1 08c0 effe 163f 5990 2bbe 2da1 873f
000001f0: d703 a2bc 75e2 803f 19ef 96bf 42d3 b43f
00000200: 04bc 89be 7a59 713e 6d18 923e c08b 30be
00000210: 7546 89be 9154 29be c674 a93e d499 98bc
00000220: ed40 2fbd 622a 09be e9c1 613e 4d59 b7bd
00000230: 1bea e9bd 8d0a acbe f5d6 923d b4c8 44be
00000240: fcce b43c ba01 b2ba 4b59 f33d bd31 683d
00000250: 806c edbd 83f9 ce3c 8982 48bd 2b8f debd
00000260: d0a9 2bbe 9f31 80be 0538 00bd d232 2dbd
00000270: 7163 c83d a804 90be 4bb6 c63d f82b aa3d
00000280: d7a2 07be 3f83 01be e402 fa3c 978a 97be
00000290: 353b 13be c701 dbbd a548 ddbd 249c b1bd
000002a0: 3617 fdbd 0d17 5b3d 70b0 05be 5834 f23d
000002b0: e82a d8bd 1bd0 bd3e f481 a8bd 5f88 64be
000002c0: 18c4 16be 8996 bd3d 63c3 3bbe e01e 06bf
000002d0: 84d7 67bd 45b9 1bbe a56f e8bd 82c8 183e
000002e0: 6787 8abe 2552 543d 9fca 76be 97e7 3f3e
000002f0: a250 4bbe 0a48 403d 056a a13d c86a 75bd
00000300: 16ce bebe 7b12 f73c 0634 d03b 5f7b cc3d
00000310: e5c8 dcbe b903 313d c25b 473e 7dbc 183e
00000320: 98fe f23c 0d81 13be c9e4 1d3e 1618 93be
00000330: a54e 65be 3d2b 70be b41b 6b3c 361f c5bd
00000340: 5ba1 d63c d890 5dbe 1071 84bc f40f 813e
00000350: 3d00 debd 8d07 623e 003d c93d d269 a3bd
00000360: 18f0 87be e7be c2bd e6da 9abe 8013 aa3d
00000370: 3145 eb3e ce1e c7bc c6a1 813d bee7 3fbb
00000380: 1f95 95bd 8967 15bd 9f8e c83d 5c1d bebe
00000390: 518c 4abe 18bb 563e 021e 69bc 2a9c b33e
000003a0: b73a 183e 27f6 01be a358 a4be c816 a23d
000003b0: cd33 13be 756b 673e 0393 5cbc ef6a 483e
000003c0: 6da7 a3be fdee 60be 2b2c 9a3d 99f5 fbbe
000003d0: 2c73 743e 4994 cabe 59b1 a3bd 95a3 a8be
000003e0: df1a 2f3d 23cf 0bbe d954 c0be 7493 5a3e
000003f0: 5d6b dd3c e62f 933b a2a6 643e f8cd f9be
0.55757105 0.25050506 0.19748959 0.10412831 -0.35459775 0.069340855 0.11531247 0.041260295
-0.43522525 -0.20485295 -0.18903431 -0.11208188 0.021964213 -0.11801854 -0.1601609 0.03115211
-0.14584558 0.13368891 0.1211064 -0.27874953 -0.11919708 0.116113886 0.17923753 -0.5333363
0.25617978 0.13056986 -0.10841132 -0.12871137 -0.08646421 0.110314645 0.45876384 -0.03438692
-0.09098561 -0.27508554 0.38464516 0.08131516 -0.1287764 0.44022864 0.12038128 0.03297307
-0.2845652 0.13682017 0.12331601 0.22974715 0.23774108 0.24962226 -0.32704568 -0.20655014
-0.13827968 -0.037108615 -0.36607033 0.08766793 -0.24148658 -0.35985363 0.12683241 0.20766091
-0.18609263 0.21528445 -0.18770905 -0.30507845 -0.25346434 0.05286466 -0.2557465 -0.2574001
-0.22671571 -0.23437828 0.12887491 -0.73779476 -0.93977624 -1.6931934 0.61374855 -1.6190933
-0.83179456 -0.9500393 0.8563544 1.3306557 0.9789045 -0.7037236 0.12939215 -1.8804171
-0.95189565 1.0558497 1.8386613 -0.40748343 -0.045451522 -0.17582507 -0.6305182 0.645273
-0.34399307 -1.3839973 0.7979064 -1.5030413 -0.27571768 -0.35089746 -0.6499032 0.7744564
0.92182034 -0.4920994 0.38713676 1.1457512 -0.21954396 -1.1637633 -0.36593324 -1.0962701
-1.103376 0.44716188 1.0922387 0.6699378 0.25540087 0.6437259 0.43897906 -1.7720761
-1.3305151 1.169331 -0.9559988 -0.48106715 -0.8048491 0.46934998 -0.34307843 0.7809203
-2.137776 0.5898275 -0.16754283 1.0596062 -0.019777222 1.0069109 -1.1791717 1.4126971
-0.26901257 0.23569289 0.2853426 -0.1724081 -0.26811567 -0.16536166 0.33096904 -0.018628038
-0.042786527 -0.13395074 0.22046627 -0.0895258 -0.11421605 -0.336018 0.07169906 -0.19217187
0.022071354 -0.0013580837 0.11882266 0.05668806 -0.1159296 0.02526546 -0.048952613 -0.10867151
-0.16763997 -0.25037858 -0.031303424 -0.042284794 0.09784592 -0.28128552 0.097027384 0.083091676
-0.13245712 -0.12647723 0.030518956 -0.29597923 -0.14378054 -0.106936984 -0.108048715 -0.086723596
-0.12357943 0.05348878 -0.13055587 0.1182639 -0.10555059 0.37072834 -0.082279116 -0.22317646
-0.14723241 0.09257228 -0.18336253 -0.5239086 -0.056602016 -0.15207393 -0.113494195 0.14920238
-0.2705643 0.05183615 -0.24100731 0.18740688 -0.19854978 0.0469437 0.0788155 -0.059916288
-0.37266606 0.03016018 0.006353858 0.09984469 -0.4312202 0.04321644 0.19468597 0.14915653
0.029662415 -0.14404698 0.15419306 -0.28729314 -0.22393282 -0.23453994 0.014349867 -0.09625094
0.026199987 -0.21637285 -0.016167194 0.25207484 -0.10839889 0.22073193 0.09826088 -0.07979168
-0.26550364 -0.09509068 -0.3024513 0.083045006 0.45951226 -0.024306681 0.06329684 -0.0029282416
-0.07303833 -0.036475692 0.09792828 -0.37131774 -0.19780089 0.20969808 -0.014228346 0.3508008
0.14866148 -0.12691556 -0.32098874 0.079145014 -0.14375229 0.22599585 -0.013462785 0.19572042
-0.31963673 -0.21966167 0.075279556 -0.49210814 0.2387206 -0.39566258 -0.07992811 -0.32937303
0.042750236 -0.13653235 -0.37564734 0.21345311 0.027028734 0.004491794 0.2232919 -0.48789954

gru.bias_ih_l0 f4 [192]
00000000: 639e f3bc ca56 bd3d cfb8 babd a1d8 92be
00000010: aee7 0bbe bcf6 fdbd 8fee bdbd a937 b23e
00000020: 27e6 88be 9499 afbe e482 dfbe da0d 11be
00000030: aba3 ccbe 7bea b7be 640e 0ebe fbb7 28be
00000040: 477c e0be d6ff 3dbe 9856 cebe 588a 7bbd
00000050: 632c c8be 6c32 9bbe 6e96 86be f81b 0dbe
00000060: e0a1 a1be 6339 0abf 2880 c8bd d7b0 90be
00000070: 71c4 b0bc 028d 72bd d68f 02be d033 85bd
00000080: eae2 7abe 0485 87be 3eb7 85be e0ff abbe
00000090: 58a5 9cbe 3285 07bf 5f12 8dbe 2fc5 abbe
000000a0: 3367 6fbe dda9 42bd b7b8 26be e7aa 5dbe
000000b0: fab8 5bbe be18 9bbe f29a e3be 3959 e8be
000000c0: 55ea c8bd a173 1cbe e204 f8be eff1 86be
000000d0: ad35 0f3d c6d4 42be a526 a6be 0881 a1be
000000e0: f556 23be 9a6d 0bbd 6ce6 5bbe 04fa e1be
000000f0: a66d 9ebe ddb0 debe b3d0 e1bd 015d 57bd
00000100: 19eb 3a3e 332a 793e 0275 d13d 9631 153e
00000110: 1b19 903e 7627 b63d 04de a33e 3145 f73a
00000120: 5522 9e3e 8d99 ed3c 26b7 e33c eb80 b93d
00000130: 95d0 573e 46df 723e f0bf af3d f6da 453c
00000140: d7d6 063e b9a3 a73d 18ef 2a38 f742 55bd
00000150: ce11 1b3e fad9 2a3e 86e5 9d3e d52e ac3e
00000160: edae 073f 46b6 693d 986c 3bbe 7bd5 b53e
00000170: 66ec 913e 7918 f23d bf45 c23e 2705 debc
00000180: 59d3 ae3e 964b ce3d afd1 7d3e cf87 923e
00000190: 21b9 2d3e c1cf f33d 5092 313e 53dc bd3d
000001a0: ec28 f13d 294f 1f3e aaa3 703e 86ef d13d
000001b0: 05d4 7e3e ca2c 043e 3a08 b83e d655 7a3e
000001c0: 54e1 843e 9c1a 063e 567b 9f3e 2648 563e
000001d0: dc7d f93e c68f c53e 8403 6b3e cca7 9d3e
000001e0: f272 4f3e 22de 8d3e e4bb a63e adc8 2b3e
000001f0: bd1d 923e 2d24 253e ec7e 033f a35c c63e
00000200: ef32 043e 25f3 203e 11c3 173c 278b 69bd
00000210: f246 50be 9227 c03d 0c95 573c 65c7 90bd
00000220: 4c9a 67bd abb1 6cbc 89d8 943d ee03 13be
00000230: fd99 23be e39b cebd 9aa7 18be c0c5 453e
00000240: 0476 0cbd 5cd7 40be f090 e83a f4bf 923d
00000250: 4e0c 43be da3a 1fbd 54b7 483c 0887 03be
00000260: 2980 aa3b 27b3 e1bd b0e1 61be e82d 003d
00000270: 4f75 a9bd 80bb cc3d 3061 3b3e e060 c9bc
00000280: e4c4 29be 285d 9c3b 2bd7 0f3e f018 77be
00000290: a8e2 2abe f3d8 e23c 5e25 febd 23c0 073e
000002a0: b64c febd a6af 593d 8a96 0ebe d203 54bd
000002b0: da70 433d 4a8a 1b3e 3193 21be 93fb e43d
000002c0: 4df9 18bc 59cf 56be 6979 2e3e 47d1 43be
000002d0: d484 58bd 1b37 27be e5c6 5f3d 8f2d 1cbe
000002e0: a766 113e 851c fabc 51cc 48bd 28fa cebd
000002f0: 246f 1d3c e843 1d3d 04c6 69bc 8128 17be
-0.02973861 0.09245069 -0.09117281 -0.286809 -0.13662598 -0.124005765 -0.09274017 0.3480809
-0.26738092 -0.34296858 -0.4365455 -0.1416544 -0.3996862 -0.35921082 -0.13872677 -0.16476433
-0.43844816 -0.18554625 -0.4030044 -0.06141123 -0.39096364 -0.30311906 -0.26286644 -0.137802
-0.31568813 -0.53993815 -0.09790069 -0.28259918 -0.021578046 -0.059216507 -0.12750182 -0.06504023
-0.24500623 -0.2646867 -0.26116365 -0.33593655 -0.30594897 -0.52937615 -0.2755308 -0.33548877
-0.23379211 -0.047525275 -0.162814 -0.21647225 -0.21457282 -0.30292314 -0.4445415 -0.4538057
-0.0981032 -0.15278484 -0.48441225 -0.26356456 0.0349633 -0.19026479 -0.32451358 -0.31543756
-0.1595114 -0.03404007 -0.21474618 -0.4413606 -0.3094303 -0.4349431 -0.11026134 -0.05257893
0.18253745 0.24332504 0.102273956 0.14569697 0.28144154 0.08894245 0.32005322 0.0018865225
0.30885568 0.029003883 0.027797293 0.09057792 0.21075661 0.23717985 0.08581531 0.01207613
0.13167892 0.081855245 4.0753832e-05 -0.052065816 0.1514351 0.16684714 0.30839175 0.3362948
0.5300129 0.057058595 -0.18303144 0.35514435 0.2850067 0.11821074 0.37943837 -0.027102066
0.3414562 0.100730106 0.24787019 0.2861924 0.16965152 0.1190486 0.1734097 0.09270539
0.11775383 0.15557541 0.23499933 0.102507636 0.24885567 0.1290771 0.35943776 0.24446806
0.25953162 0.13096088 0.31148785 0.2092596 0.48728836 0.38586253 0.2295056 0.3079208
0.20258692 0.27708536 0.32565224 0.1677577 0.28538314 0.16127081 0.5136554 0.3874255
0.12910055 0.15717752 0.009262816 -0.05701747 -0.20339563 0.093825474 0.013158094 -0.070692815
-0.056543633 -0.014446656 0.07267863 -0.14356968 -0.1597671 -0.10088327 -0.14907685 0.19313717
-0.034292236 -0.18832153 0.001774339 0.071655184 -0.19047663 -0.038874485 0.01225074 -0.12844479
0.005203266 -0.11020499 -0.22058749 0.03129378 -0.08274328 0.099967 0.18298793 -0.024582326
-0.16579014 0.0047718473 0.14046924 -0.24130607 -0.16688025 0.02769134 -0.12409471 0.13256888
-0.12416975 0.053146027 -0.13924614 -0.051761456 0.047715046 0.15189472 -0.15778805 0.111807965
-0.009336782 -0.20977534 0.17038502 -0.19122802 -0.05286105 -0.16329615 0.05463304 -0.15251754
0.14199315 -0.030531177 -0.049022976 -0.10106307 0.0096090175 0.03839484 -0.014268402 -0.14761545

gru.bias_hh_l0 f4 [192]
00000000: 2c4c 64bb e308 823b 467e ccbc 98ed 25be
00000010: 2475 2fbe 63a0 9cbd c656 84be 6170 413e
00000020: 428a 03be 5262 cdbe faba 9cbe 3459 08be
00000030: 1cf0 64be f12e abbe 370c 18be 5404 bfbd
00000040: c737 87be d27a 5abd 0f3c 9fbe 1212 06bd
00000050: a2d1 e4be 8e49 3cbe ecb1 d0be 13a0 7dbe
00000060: 0530 36be 8653 38bf ec47 54be 4477 7cbe
00000070: 2deb 3ebe da19 38be 22a5 7cbe 8db4 12be
00000080: 66ee 55be c00d 4bbe 7f51 46be c84e c8be
00000090: f6fa 3bbe 9e4a d4be 0fcd b0be 2c0f ccbe
000000a0: 2401 a3be 600d 0fbe 4e0a 2dbe 5c9c ecbd
000000b0: dd8b 88be 0d7d a8be 321e e7be b7a7 78be
000000c0: c3b2 8dbe d50d 1ebe 6453 dcbe b861 59be
000000d0: b82f dabd 5b86 61be 0749 9bbe ad49 9bbe
000000e0: 442a 1abe e363 efbd 2845 75be 3c3c e2be
000000f0: 2594 adbe 74fc f3be b020 7fbd 7a25 13be
00000100: ed16 a03d ce93 663e 2ccb ac3e d13d 7f3e
00000110: beec 773e a495 693e ae4f 9f3e db64 c73c
00000120: 77e9 fe3d fd0d 513e ddfb 053d cee9 913d
00000130: 2614 063d bd77 853e 13cf 923e 2019 1a3e
00000140: 2777 273d 1412 263e 9e48 07bd 9b87 fa3d
00000150: b2f9 f93d 8c3d 733e b432 653e 4540 1c3e
00000160: 0351 163f 2a01 463e c569 4dbd c026 863e
00000170: 14bd d63d 677a 163e a4de ed3e c60b af3d
00000180: f178 613e 2fdf 433e 94ae 393e ed0c 473e
00000190: 02d6 353e d2de 543e 5cd2 b13e 3e90 a33e
000001a0: 6838 9c3d af54 853d 9ec2 5c3e f431 943e
000001b0: 3906 c03e f42d 813e 20ad 653e 3f2d 8a3e
000001c0: e0d9 943e aca7 523e 67a5 b13e 02d1 f53d
000001d0: 8436 e03e 9458 a53e 551e fa3d 8f62 8b3d
000001e0: f3b4 8c3e 6f06 023e 6cd4 c43d 7bbc 403e
000001f0: d906 383e 4308 a0bc be84 083f d75c b03e
00000200: b4ac ef3c 2102 983e 6bf4 23be 2a3f 2abe
00000210: a2d4 0abe 901d 713d 63e1 30be 3560 01be
00000220: 2010 d1bd cb1a ec3d 59e5 0f3e e5d6 31be
00000230: a8c3 2bbe b3e7 17be 8114 03be 6af1 053c
00000240: d072 b53d 13fa 28be 1d73 dfbb 4949 033e
00000250: 3959 39be 72a5 8abd efac c33c ccb1 58bd
00000260: 63aa 343e dec7 993c 258d bfbd 6a94 4e3d
00000270: d8a9 0b3d e4ae 81bd 6f4c 103e 647e a2bd
00000280: 2711 89bd 9e49 0fbd 58ab c43c ec9e 2dbe
00000290: 6cd3 393d 17b3 843c 2a9f 9cbd e515 4a3e
000002a0: 9d68 ac3c d062 923d fd8d 9ebd b04b d83d
000002b0: 4946 193d a7cb 193e 41fb 85bd 6d87 843c
000002c0: 3270 02be 1461 36be 2150 d6bc 968c 27be
000002d0: bdfd dc3d ee26 ebbc d726 183e 144f a6bd
000002e0: f341 10bb 0050 f7bd ccb5 cabb 70bb 99bd
000002f0: c8e1 293e 8acf 9a39 b4e0 18bd b78c bebd
-0.003483544 0.0039683445 -0.024962556 -0.16203916 -0.1713453 -0.07647779 -0.25847453 0.18890525
-0.1284571 -0.40114075 -0.30611402 -0.13315278 -0.2235722 -0.3343425 -0.1484841 -0.093269974
-0.26409742 -0.053339787 -0.3110051 -0.032732077 -0.44691187 -0.18387434 -0.40760744 -0.24768095
-0.17791755 -0.72002447 -0.20730561 -0.24654871 -0.186444 -0.17978612 -0.24672368 -0.14326687
-0.20891723 -0.19829464 -0.19367026 -0.39122605 -0.18357453 -0.41463178 -0.34531447 -0.39855325
-0.31836808 -0.13969946 -0.16898462 -0.11553261 -0.26669207 -0.32907906 -0.45140225 -0.24282728
-0.27675447 -0.15434964 -0.43032372 -0.21228683 -0.10653633 -0.22023909 -0.30329153 -0.30329648
-0.15055186 -0.11688974 -0.23952162 -0.4418658 -0.33902088 -0.47653544 -0.062287033 -0.14369765
0.07816873 0.2251732 0.33748758 0.24925925 0.24211404 0.2281099 0.31115478 0.024340084
0.12446874 0.20415492 0.0327109 0.07124673 0.03273406 0.26067916 0.2867361 0.15048647
0.040885117 0.16217834 -0.033028238 0.12232896 0.12205829 0.23753947 0.22382623 0.15258892
0.58717364 0.19336382 -0.050149698 0.2620144 0.104852825 0.1469513 0.46458924 0.085471675
0.22018792 0.19128107 0.18133003 0.19438525 0.17757419 0.20788124 0.34730804 0.31945986
0.07627946 0.06510293 0.21558616 0.2894436 0.37504748 0.25230372 0.22429323 0.26987645
0.29072475 0.20571774 0.34696504 0.12002756 0.43791592 0.32294142 0.122128166 0.06805908
0.27481803 0.12697767 0.09610829 0.188219 0.17971362 -0.01953519 0.5332755 0.3444583
0.029257156 0.29689124 -0.16011207 -0.16625658 -0.13557675 0.058866084 -0.17273478 -0.12634356
-0.10208154 0.11528548 0.14052333 -0.17367132 -0.16773856 -0.1483448 -0.1280079 0.008175233
0.08859789 -0.16501646 -0.0068191425 0.12820925 -0.18100442 -0.067698374 0.023886172 -0.052903935
0.17643122 0.018772062 -0.09353093 0.050434507 0.034097522 -0.06332186 0.14091657 -0.07934263
-0.06692725 -0.034982316 0.024007484 -0.16955155 0.045367643 0.016198678 -0.07647546 0.19734915
0.021045977 0.07147753 -0.07741926 0.10561311 0.037420545 0.15019093 -0.065420635 0.016177857
-0.12738112 -0.1781047 -0.026161255 -0.16362223 0.10790584 -0.028705087 0.14858566 -0.08120552
-0.0022011965 -0.12075806 -0.0061862227 -0.07506454 0.16590035 0.00029527798 -0.03732367 -0.09304183

gru.weight_ih_l1 f4 [192, 64]
00000000: 6f38 aebb 37cf b1bd dfc7 13be 5a3e 09be
00000010: 4579 453e 4957 843e c59d bfbe b9ab fb3d
00000020: 3c6f 5c3d 179e fbbd 3726 9fbd 8bcd 70be
00000030: 4cc4 1a3d b9f9 2b3e 51a6 323e 9edb 833e
00000040: 26a7 903e c68d 34be dfd0 6cbe 759a de3c
00000050: f15c a7bd 9401 64be c1e4 8b3e c599 ac3d
00000060: 8c31 2b3e 4f07 eebd a84b 373e 7a48 ef3d
00000070: 4820 aebd 93bc afbd a82f a1bc 4c1b 50be
00000080: 8ac0 21bc e0b9 e23b ff58 d6be ae5e 223e
00000090: f1d5 8a3e 407e 023c 3518 63be d41d dabc
000000a0: 4c16 583e 9ae8 dcbc 20b8 a23e 8237 ccbe
000000b0: dd25 8fbd d4f6 38be a94e 013e 1c88 063c
000000c0: 8727 2c3e 799d 18be c94d 0c3e 0bb7 a9bd
000000d0: 789e 693b a639 083f bf0e a1bd d9ce bb3d
000000e0: 6727 843e a89b eabd 24bb ab3e 0c38 413d
000000f0: 10c5 f73d f3fc 06be 89c4 973e 35e5 cc3c
00000100: a303 57be bb7e debe 454f 983d a09c 82be
00000110: b2c6 82be 1c77 ea3c b70b ea3d dac0 92bb
00000120: ff72 543d 4467 103e 42ef 763e 15f5 7c3e
00000130: 1961 76be 05e9 75be 669e 6abc 3e65 6abe
00000140: b751 dfbd 09eb 98be a37d 983e 9452 613d
00000150: 1fdf 2ebe bf7f 60be 7029 bd3a 4ab2 793e
00000160: a8a2 0bbf 318d b8be e0fc ffbd 4458 8dbe
00000170: da50 00bd b402 3cbd 443c e5bc fcf3 5cbd
00000180: 9e67 323d 2b1f 123e 1c97 af3d c62b 4b3e
00000190: 2d2e 2b3e d451 73be 2cad 02bf cc57 3ebe
000001a0: d8cd c9bd 0723 76be 7efd 743e d43d 7ebb
000001b0: 2944 b4be 23c7 463e 1f70 073d bbd3 b4bd
000001c0: 903c b5be 9a0d 1dbe 576b c53c bfff 64be
000001d0: 6675 56bd 070e e23d 7975 2d3e 8d2a 013d
000001e0: e893 52bc d565 52bc fea4 bdbc c097 6d3e
000001f0: 8583 ffbb 257d 813e 567f 893d deb2 dd3e
00000200: 68bc a93d 8fb1 27bd 9f4c 32be 2b56 5e3e
00000210: 5042 453d a831 2e3e 500e 09be 68df 163e
00000220: 5a35 6cbe 3f7e 15bd 8b01 29be 3a1c bf3c
00000230: 66d3 c4bd 4cc8 133d c805 f53d 2ced 623e
00000240: fa24 29bd 2ae7 f33c 4133 123e 4c49 fabd
00000250: e252 43bd 3a6f 18bd cac5 6abe 5bff e23b
00000260: 6f24 90be 8a75 07bd cf7c 95bc e7ca 04be
00000270: 746b cc3c 9ac0 f63d 8f94 30be 0aad 553c
00000280: d10a 623c 0fc1 a4be 6eb2 7bbc 9797 c73d
00000290: a07e cd3d bdeb 3c3c a242 54bc a150 c33d
000002a0: 5cfb 59bc 2dc0 8d3d db51 0fbd 37a7 cabc
000002b0: 54b9 4abe d95f 923d d210 6f3e fcbc 61be
000002c0: 50c7 463e b277 e338 9083 a0bd ffed 453d
000002d0: ad8e 39be eecb dc3e 15d6 92be 6e77 20bd
000002e0: 8323 b0bd aeba 383d 1ea7 2d3e eb04 163e
000002f0: f0d8 d23c 8980 9e3e 08fc 02bd 0504 0ebd
00000300: 8777 4abd 1c36 a03d 5ebb 033e 9120 093e
00000310: 7b45 f5bd 46f5 afbe a982 483e fe53 cfbd
00000320: cd17 3cbe d9be afbd 34e3 95be e215 303d
00000330: 2f11 153e 4bc4 b63d a0d5 5dbd 40d6 ffbd
00000340: fc28 4ebd 608e 7cbd c0c8 5dbe e7d0 933d
00000350: f641 183e 5687 363e 6162 923b 471f 20be
00000360: ad0d 0a3e 1cd7 533d b306 103c 5f19 a2bd
00000370: 7865 df3d b1bf 423e 8414 9b3e 95b4 5abc
00000380: cc21 403e e928 353d f328 85bd 2e14 b43e
00000390: 1bda b03d 0f44 44bd 4704 b73d a08e 3cbd
000003a0: ecba e23d 1281 4cbe 6390 33be 3a38 323c
000003b0: a004 f83c 92a5 06be 8d70 943d 56de c5bd
000003c0: 6df1 0bbe 0230 c2bd c5a0 6d3e 4345 1e3e
000003d0: 3301 2b3e 3b3f 3bbe e8fb 6fbd 25bd 8f3e
000003e0: 9a0c 35be b410 3bbd a0c7 89be 9f88 77be
000003f0: 6924 b2bd b4a1 fabc 74da 7f3e 589e c1bd
-0.005316786 -0.08682101 -0.14431714 -0.13402691 0.19284542 0.25847843 -0.37425056 0.12288613
0.05381702 -0.122860126 -0.07770961 -0.23515908 0.03778486 0.1679448 0.17446257 0.25753492
0.28252524 -0.17632207 -0.23126553 0.02717326 -0.08172024 -0.22266227 0.27322963 0.08427767
0.1671812 -0.11622488 0.17899954 0.11683746 -0.08502251 -0.085808896 -0.019676045 -0.20322913
-0.009872565 0.0069191307 -0.41864774 0.1585643 0.2711635 0.007964671 -0.22177203 -0.026625551
0.21102256 -0.026966382 0.317811 -0.398861 -0.06989644 -0.18062907 0.12627663 0.008211162
0.16811953 -0.14903821 0.13701548 -0.08286866 0.0035647433 0.53212965 -0.07864141 0.091703124
0.25811312 -0.1145547 0.33541214 0.04717259 0.120981336 -0.1318243 0.29642132 0.025011638
-0.20997481 -0.43456063 0.074369945 -0.2551012 -0.25542217 0.028621249 0.11428016 -0.004478556
0.05186748 0.14101893 0.24114707 0.24702866 -0.24060477 -0.24014671 -0.014319992 -0.22890183
-0.10904258 -0.29866818 0.29783353 0.055010393 -0.17077301 -0.21923731 0.0014431905 0.24384418
-0.5454507 -0.3604522 -0.12499404 -0.27606404 -0.031327106 -0.045901015 -0.027982838 -0.05394362
0.04355585 0.14269702 0.08573744 0.19840917 0.16716833 -0.23761684 -0.5104549 -0.1858818
-0.09853715 -0.240368 0.23924825 -0.0038794177 -0.35208252 0.19411902 0.03306591 -0.08829447
-0.35397768 -0.1533722 0.024099035 -0.22363184 -0.052358054 0.11037832 0.16939344 0.03153472
-0.012852646 -0.012841661 -0.023149963 0.2320242 -0.007797661 0.2529079 0.067137405 0.43300527
0.08287889 -0.040940817 -0.17412041 0.21712558 0.048158944 0.1701113 -0.13384366 0.1473366
-0.23067227 -0.03649735 -0.16504495 0.02332889 -0.096106336 0.03607969 0.11963993 0.22160786
-0.04129503 0.029773314 0.14277364 -0.122210115 -0.047686465 -0.03721545 -0.22927013 0.0069274134
-0.28152797 -0.03307108 -0.01824799 -0.12968026 0.024953581 0.120484546 -0.1724417 0.013041744
0.013796524 -0.32178542 -0.015362365 0.0974571 0.100339174 0.011530814 -0.01295534 0.09536863
-0.013304558 0.0692142 -0.034990173 -0.024737937 -0.1979726 0.07147188 0.2334626 -0.22044748
0.19411969 0.000108464985 -0.078375936 0.048322674 -0.18120833 0.43124336 -0.28678957 -0.039176397
-0.08600523 0.045099907 0.16958281 0.14650314 0.02573821 0.3095744 -0.031978637 -0.034671802
-0.049430396 0.078228205 0.12864444 0.1339133 -0.11976143 -0.34366816 0.19581093 -0.10123442
-0.18368454 -0.08581323 -0.29274905 0.04298962 0.14557336 0.08924159 -0.054158807 -0.12492037
-0.050332054 -0.061659217 -0.21658611 0.07217579 0.14868912 0.17825064 0.004467294 -0.15636931
0.1348178 0.051718816 0.00879066 -0.079149954 0.109080255 0.19018437 0.3028909 -0.013348718
0.18762892 0.044228468 -0.06501951 0.35171646 0.0863535 -0.04791647 0.08936363 -0.046034455
0.11070809 -0.19971111 -0.17535548 0.010877663 0.030275643 -0.13149098 0.0724803 -0.09661548
-0.13666315 -0.09481813 0.2320586 0.15456109 0.16699676 -0.1828584 -0.058589846 0.28073993
-0.17680588 -0.045670226 -0.26910114 -0.2417321 -0.08698351 -0.030594684 0.24985677 -0.0945403

gru.weight_hh_l1 f4 [192, 64]
00000000: 4f43 0dbe c2f8 b03e 986e f33d 7556 90be
00000010: e4ef 2e3e 496f 103e fb00 c8bd 3589 c83e
00000020: 0fd1 ac3e 4910 2a3e 32f9 b03e e407 033e
00000030: 3168 8bbe ed1d b7bd 22a5 b6be f15d 8fbe
00000040: 2d8f f1bd c5c8 183e 1a27 013e ce37 b0bd
00000050: 7691 32be ccf8 7c3d 90ef 333e 942b 86bd
00000060: 5b08 363e 9d33 95bd 08d6 e1bc 6db0 0f3e
00000070: 7456 cbbe 765b cebd d1ce 8fbd fcc4 b03e
00000080: 164c a93c e78b e7bc 8c0a 88be f351 53be
00000090: 248c 643e dcf4 6e3e f005 883d 4399 9f3d
000000a0: dd84 b0be 4731 a73d 8ae0 1c3f e26a a93d
000000b0: afdf 333e 8ca3 d8bd cd72 2f3e d70a 9cbe
000000c0: d789 5fbc aebe 0dbe ca5e 88be 926c 50be
000000d0: 9c24 c43d 972b d33e 10d6 01be c454 eabc
000000e0: 7c67 85be 0f3b d93b 91d5 b7be 5744 3a3e
000000f0: 4c82 f8bd 4571 053c 8f1c edbc 224e d63c
00000100: 31a9 bdbb bf0e b13d 2a36 a0bd 47f4 593e
00000110: 7934 0c3c 1622 553d d11b c1be 2e16 b43d
00000120: bb20 933d fdfd 8e3d fcee 023e d62f bd3c
00000130: 8b69 763e 9519 883d 41f7 dabd 0be8 a7bc
00000140: 2df3 83be 18f2 de3e 33b9 b83d fd65 d5bd
00000150: 632b 97be 73e9 a13b 5c7d 8e3e 2309 acbe
00000160: cbfc 81bc d764 4e3d 1fe9 253e ffd6 3bbe
00000170: eacd 90be 867f 1ebf b832 41bc 5fdd 573d
00000180: 49c5 873d 6df6 5e3d c054 81bd 732f 10bf
00000190: aa15 b73e 198f 9d3d 5004 14be 813c ac3d
000001a0: 9756 32be de43 283e a3f1 0b3d 105e 243e
000001b0: da79 51be 6f92 67bd 2355 d43d 2352 843c
000001c0: fa0c edbd 864d a23d 4c78 b3be 18c5 96bd
000001d0: 82c1 583e 5c3e 68be b189 223d a6da 15be
000001e0: 8d7d b6bd 93f5 193d e440 1abe f4e8 c13e
000001f0: 4a7e 4a3c e554 91bd 79f0 d3be 8b76 91be
00000200: 3e50 7f3e 80e5 733d 1287 cebe d5e1 3c3e
00000210: 6541 09bd 3a2e bfbd 80e2 3bbe 696d 3c3e
00000220: 38a7 b1bd e67f 5bbe f572 00bf 76eb adbc
00000230: 21fe f73d 0776 5a3e 5f5e a63e 1dc4 c6bc
00000240: dc31 08be 4eac 24be 4ab1 1ebe 2665 9ebd
00000250: 5525 d03e 3cdb 59be 21e5 0fbd 03d3 8abb
00000260: 9550 9ebe 712e f53d f4b4 8a3c dd70 543e
00000270: bc1e f03d 9f28 633e c8c4 423e 9c4b d13d
00000280: 9507 323e 41de 253d bccc c7bd 8bd0 c43d
00000290: a919 c2bc cb22 c2bb ef77 a73d 6d9d 11be
000002a0: 762b 923e 4737 ac3d b5e1 a63d f90b 8fbe
000002b0: 48e6 b33d cb1c cd3c 4d58 4d3d 59c9 d9bc
000002c0: b6ce babc 0ab8 343e 08d6 123e e21b 163e
000002d0: a475 09bf 40e1 f4bd 71a1 8f3d d30b 38bc
000002e0: 2d75 cd3d 97d2 a5ba 8cb1 debc f460 49be
000002f0: ca51 e3bd c427 3e3e 8fe8 f23d 472e 3c3e
00000300: cef2 ec3c a908 52be d21d 08be c0e2 333e
00000310: 48ef b7be e904 7cbe deed 483e ac7a 9abe
00000320: 69ed 44be 2fd3 a5be 67dd 5dbd 3144 173d
00000330: 030f 793e aba4 863d eea2 12bd 5965 16be
00000340: 6e52 2cbd 2b20 80be 5f4d c9ba 21b7 8fbe
00000350: b227 dc3d de1a a33d bf82 c1be 8f05 b83e
00000360: f8b5 d2bd 3d4f dfbb 4bc9 ce3e bec6 d6be
00000370: 5e82 7a3e 85a0 4fbd 5e9f cf3d 11d0 c5bd
00000380: 8ced aebe 7190 333e 6f4e 593e 4052 043e
00000390: d6bc 3aba 8077 87bd edd7 a33c b2aa 2dbd
000003a0: 06e2 57be 64bc 6c3d 8671 bfbd 06e5 b9bd
000003b0: f4f3 6ebd 5318 793e f7b7 c13d c22c 843e
000003c0: a696 193e 0555 9bbd 9e0a 2b3e 5787 a5bd
000003d0: 3a3c 9cbe ed01 663d b986 9e3d 8b1d 99be
000003e0: 0af2 783d cf92 acbd ec03 eabc 58e3 203d
000003f0: 8650 71bd ccec b83b 9dce 3a3e cb3e 043e
-0.13795207 0.34564787 0.118863285 -0.2819096 0.17083699 0.14104952 -0.09765812 0.3916718
0.3375325 0.16607775 0.3456512 0.12795979 -0.2722793 -0.08941255 -0.3567286 -0.2800136
-0.11794887 0.14920337 0.12612572 -0.08604394 -0.17438301 0.06176071 0.17571855 -0.065512806
0.17776625 -0.07285235 -0.027567878 0.14032145 -0.39714396 -0.100760385 -0.07021869 0.34525287
0.020666163 -0.028264953 -0.26570547 -0.2063673 0.22319084 0.23335594 0.066417575 0.07792904
-0.34476367 0.08163696 0.6128012 0.082723394 0.17565797 -0.10578069 0.17133637 -0.3047702
-0.013643703 -0.1384227 -0.26634818 -0.20353916 0.09577295 0.41244194 -0.12679315 -0.028604873
-0.26055515 0.006629355 -0.35905126 0.18190132 -0.12134227 0.008144681 -0.028944282 0.026160304
-0.0057879915 0.08645391 -0.07822831 0.2128459 0.008557432 0.05203446 -0.37716535 0.08793293
0.07183977 0.06982038 0.12786478 0.023094099 0.24063699 0.066455044 -0.10691691 -0.020496389
-0.25771466 0.43544078 0.09019699 -0.10419843 -0.2952529 0.0049411594 0.27830017 -0.3360072
-0.015867611 0.050389137 0.1620221 -0.18343733 -0.282821 -0.61913335 -0.011791877 0.05270135
0.06629426 0.05443423 -0.06314993 -0.563224 0.35758716 0.07693309 -0.1445477 0.08409978
-0.17415844 0.1643214 0.03416599 0.16051507 -0.20456639 -0.056536134 0.10367801 0.016152447
-0.11574741 0.07924943 -0.35052717 -0.073618114 0.21167567 -0.22680038 0.039682094 -0.14634189
-0.08910666 0.037587713 -0.15063816 0.37873042 0.012359211 -0.070962705 -0.41394404 -0.28410754
0.24932954 0.05954504 -0.40337425 0.18445523 -0.03350963 -0.09334989 -0.18348122 0.18401112
-0.086744726 -0.21435508 -0.5017541 -0.02123044 0.12109018 0.21334086 0.32493874 -0.024263436
-0.1330027 -0.16081354 -0.15497318 -0.07734136 0.40653482 -0.21275038 -0.035130624 -0.0042365803
-0.30920854 0.119717486 0.016931988 0.20746179 0.11724612 0.22183464 0.19020379 0.102194995
0.17385705 0.04049516 -0.09755847 0.09610089 -0.023693876 -0.005924558 0.081771724 -0.1422021
0.28548783 0.08408981 0.08148519 -0.27938822 0.08784157 0.025038144 0.05013304 -0.026585268
-0.022803646 0.1764833 0.14339459 0.14659074 -0.5369513 -0.119570255 0.070132144 -0.011233288
0.10032115 -0.0012651262 -0.02718427 -0.19665891 -0.110995844 0.18569857 0.11860763 0.18377028
0.028924372 -0.20511116 -0.13292626 0.17566967 -0.35924745 -0.24611248 0.19621989 -0.30171716
-0.1923119 -0.32387683 -0.054166224 0.036930267 0.24322133 0.06574377 -0.035799913 -0.14687099
-0.0420708 -0.25024542 -0.0015358141 -0.28069404 0.10749759 0.07964109 -0.37795064 0.3594174
-0.10288614 -0.006814866 0.4038795 -0.41948503 0.24463794 -0.050690193 0.10137819 -0.09658826
-0.3416561 0.17535569 0.21221326 0.12922001 -0.00071234757 -0.0661459 0.020000422 -0.042399116
-0.21082315 0.05779685 -0.09347825 -0.09076886 -0.05833812 0.24325685 0.09458917 0.25815398
0.14998874 -0.075845756 0.16703269 -0.08082455 -0.305147 0.05615418 0.0774054 -0.29905352
0.0607777 -0.08426439 -0.028566323 0.039279312 -0.058914684 0.0056434628 0.18242879 0.12914579

gru.bias_ih_l1 f4 [192]
00000000: 9699 fc3c 28e4 a7bb 261f e8be dc05 a6bc
00000010: 1e8d 1d3e 8b08 9ebe 6c6d 8b3d d2b9 f43c
00000020: 7871 933d ced8 fa3c b8af 90be 175c bc3c
00000030: 50e9 ddbd af8c 523e 4179 7fbe cc00 87bd
00000040: eb58 28be 420c 7abe e344 8ebe e0b2 dcbe
00000050: b557 dcbe 58b9 92be 845c 96be 59a7 fd3d
00000060: 05a0 0cbe 733c 94be 9d30 1fbf 8e2d 24be
00000070: fc24 1fbe a2f1 a7be ee17 2cbe b7d5 07be
00000080: 659f 4ebe bdea 20be 7e11 e3be 93a7 90bd
00000090: 99da 183d e18b eabe 7c3f 9cbe 809b 84bd
000000a0: 14d2 a3bd e080 cb3d dfdf 163e fbb3 51be
000000b0: 16c2 a4be 8fec d5be 2d8f eabd 1d9a 13be
000000c0: d8ab 4e3e ecf4 5bbe acf2 adbe 135e 343d
000000d0: c29c de3e 1eea 653d bb15 87be fef9 353d
000000e0: 5f54 adbd bbcf 83be 80a9 253e 00c7 55be
000000f0: 39bb adbd 0325 65be 98c2 ecbd 82c7 2fbe
00000100: 7b69 f63e 4f9a cb3e 104c c43f 7b4c 453e
00000110: 5223 a93e 3706 143f 2dbf 413e c0c1 313e
00000120: 2c6f 123f 82c6 b03e 3976 423f a27d a63e
00000130: ff73 1a3f edc6 233f 69a9 533f 22bb ec3e
00000140: 921b d23e a7b5 003f f2ec 4d3f e2c5 003f
00000150: b189 8e3f cf7b 0f3f 090c 1d3e 8fea a73e
00000160: d110 053f 9be9 463f 4018 b13f 7773 133f
00000170: a1ec 043f d5ec 4a3f be31 813e a2f9 4a3e
00000180: 9693 f93e dcf7 483f 8d06 463f 5208 053e
00000190: f979 7f3e f289 673e 520b 0e3f c67f f43e
000001a0: 88bd 8e3e dc6d f63e ae2a 173e b2bf f03e
000001b0: 6748 bd3e 7c4e 283f dde7 a33e 348b 4c3f
000001c0: 261d 8d3e 4aef 593e ba70 b53e fb3c 613e
000001d0: cc61 e43e 0657 c13d 95aa 373f 2dad db3e
000001e0: 85a2 ee3e 661c 8f3f 861a 563e bd4d 1f3f
000001f0: 09fb b83d ffcf b33e a64e 013e f733 0a3f
00000200: bdbd 5ebe 5652 fb3d 9664 d7bc e942 49be
00000210: 69cb 213e e4c4 073d 68b6 753e 981e 31be
00000220: 9d6c 203e b7cb 81bd 20b8 b83d 4af1 d5bc
00000230: 9fff 2dbc 987e 4ebe 9318 c6bc 4537 2dbd
00000240: ee58 88ba 9b07 c73b d4d1 58bc 1c26 cbbc
00000250: a6a1 2fbd 356b 09bd eed6 18be 20a4 d13c
00000260: bc05 9a3d ef84 d73c 995b a63c ed52 8abc
00000270: 09b0 9abc f6c6 6cbd ba07 ccbd 5843 0cbe
00000280: 94d7 8dbd d5bb 75bc 6db6 5b3c 5209 573d
00000290: 8dc3 75bc 6ac8 a53d 44ec d23c f269 ac3d
000002a0: ad2c a4bc f355 0b3e b4f2 273e 1fbd 7c3d
000002b0: d4c4 90bd 0047 3dbc 5809 bf3c c86d 2b3b
000002c0: a5d7 a33d 0916 45bd 9a12 1abd c7e5 10be
000002d0: 99bb 25bd 457f 92bd 078c 1e3d 05bd 8fbd
000002e0: 909e 26be 5334 883c 65d2 4dbd f835 7f3d
000002f0: b679 443d 56be 1ebd c042 55be e95c 0dbd
0.030834954 -0.005123634 -0.45336264 -0.020266466 0.15385863 -0.30865893 0.0680798 0.029873762
0.07199377 0.030620959 -0.28259063 0.02299313 -0.108355165 0.20561479 -0.24948598 -0.06591949
-0.1644017 -0.24418738 -0.2778693 -0.4310522 -0.43035665 -0.2865703 -0.2936746 0.12385435
-0.13732918 -0.2895237 -0.62183553 -0.16033003 -0.15541452 -0.3280154 -0.16806003 -0.1326512
-0.20177992 -0.15714546 -0.44349283 -0.07063212 0.037317846 -0.45809844 -0.30517185 -0.06474972
-0.079990536 0.0993669 0.14733838 -0.20478813 -0.32179326 -0.41782042 -0.1145309 -0.14414258
0.2018274 -0.21480149 -0.33974206 0.04403503 0.43478972 0.056131475 -0.26383767 0.044427864
-0.08463358 -0.25744423 0.1617794 -0.20876694 -0.084829755 -0.223774 -0.11560553 -0.1716595
0.4812735 0.39766166 1.5335712 0.19267456 0.3303476 0.57821983 0.18920584 0.17359066
0.57200885 0.3452645 0.75961643 0.32517725 0.60333246 0.6397541 0.82680374 0.4623652
0.4103666 0.5027718 0.80439675 0.50301945 1.113577 0.5604829 0.15336622 0.32796142
0.51978785 0.77700204 1.3835526 0.5759806 0.5192357 0.79267627 0.25233263 0.1982179
0.48745412 0.78503203 0.77353746 0.12991455 0.24948873 0.22611216 0.55486023 0.47753733
0.27878976 0.4813069 0.14762375 0.47021252 0.369693 0.6574476 0.32012835 0.7989991
0.275613 0.21282688 0.35437566 0.21995918 0.44605863 0.094404265 0.7174466 0.4290556
0.46608368 1.1180542 0.20908555 0.62227994 0.09032256 0.35119626 0.12627658 0.5398554
-0.21752067 0.12271564 -0.02629308 -0.1965443 0.15800251 0.033146754 0.23995364 -0.17296827
0.15666433 -0.06337684 0.09019494 -0.026116032 -0.010620027 -0.20165479 -0.02418164 -0.042289037
-0.001040248 0.0060739047 -0.013233621 -0.024798445 -0.04287877 -0.033549506 -0.14925739 0.025590956
0.07520625 0.026308505 0.020307349 -0.016885245 -0.018882768 -0.05780693 -0.09962411 -0.13697565
-0.06925884 -0.014998396 0.013410193 0.052499123 -0.015000236 0.080948666 0.025747426 0.08418645
-0.020040834 0.13607006 0.16401178 0.061703797 -0.07068792 -0.011552572 0.023319885 0.0026157964
0.08000115 -0.048116717 -0.037615396 -0.14150153 -0.04046211 -0.07153181 0.03870776 -0.070184745
-0.16271424 0.016626513 -0.050249476 0.062307328 0.047967635 -0.038755737 -0.20826244 -0.034512434

gru.bias_hh_l1 f4 [192]
00000000: 7223 2e3e 07f6 c33d d60e adbe aba6 cf3d
00000010: fd15 c43d 92dd adbe 59e1 85bc d878 fa3d
00000020: f1fc 8bbd 080e 483d 9c7e 6abe 9436 963c
00000030: de22 14be 90a9 6c3e 1ff3 6abe 6a00 5d3c
00000040: ebc0 04be 2b90 25bd 619b 84be a6fb c4be
00000050: 9e26 97be 2dba dabe 7429 e1bd ebdb a7bd
00000060: af11 96bd 23b8 a1be 2f9b 06bf 08a0 9abd
00000070: 03dd cbbd be29 5ebe 5ed9 4abe 2727 17bd
00000080: 0dc8 88be 788e 8dbe ff5a c3be 6b83 84be
00000090: 9dd5 39bc dcc9 08bf d32f a2be 44b5 37be
000000a0: 7e71 d9bd 1faa cc3d d2e9 503e 27fb 61be
000000b0: c24d 19be 026d 1abf 7727 6bbe 0b4c c53a
000000c0: 31a9 a93e 580c afbe 52de b3be 3bb2 263e
000000d0: 68f8 023f a582 873d dc27 6bbe 5911 b7bd
000000e0: bdd4 73be 3a18 f4be 9e4d f03d 633c 75be
000000f0: e1b6 1bbe 8ce9 57be f26b b13b a89b 24be
00000100: f544 e23e 55c2 4a3e f371 c43f 64d0 373e
00000110: bd12 583e 4473 143f 85cb 103d c84b ac3d
00000120: 102d fc3e a686 683e 9ae3 793f d4f6 cc3e
00000130: 57c1 143f f1e9 3d3f eb99 363f 609a 9d3e
00000140: abb6 173f 29e0 c93e 7d40 413f b1d3 a23e
00000150: 967f 803f 8e93 203f 6bb9 a43e c6ec 9f3e
00000160: 87a7 cc3e 7a65 623f 72b6 973f cc4b 163f
00000170: 7a09 ae3e 8ea2 3e3f 5666 a63e e0b3 953e
00000180: 002c fe3e 5afc 653f 16ec 203f 4dcb 3f3e
00000190: c88b 3b3e 574c db3e 44a8 d43e a785 043f
000001a0: 6a1a a73e bb97 1b3f ed42 94b9 1392 023f
000001b0: 437f 8f3e ec28 3b3f b614 af3e af3c 1f3f
000001c0: 3383 533e 1c1d 8b3e 8e9f 9b3e 928a 813e
000001d0: 0396 c73e edac 813e 50a3 2f3f 2a99 cf3e
000001e0: a357 9b3e fa64 8a3f 7560 533d b6ab 003f
000001f0: 3ecd 5c3e e248 fd3e 508b 143e 262f 223f
00000200: 407e 85be c9f5 de3d ad66 d2bc 549f 23be
00000210: e2a8 02bd f998 04bc 5b63 ce3d 3d7f 43bd
00000220: c15e 2e3e ebe1 ca3d 9ba5 ff3d 850b fb3d
00000230: d2ba a43d 1c28 04be b4a8 db3c 75ba fc3d
00000240: 1a17 203d 388a b1bd b92f b8bd 4f99 13be
00000250: 33e7 2fbd fcbc 07bc 6d02 51bd 6c32 7fbd
00000260: 15eb db3d f329 cdbd 0f4d 13bd 1c92 aabc
00000270: 2a41 123c 7f9d 033d e850 4fbe 0626 5fbe
00000280: 3973 bb39 98c2 a7bd 0482 063e 5cf5 2f3c
00000290: 7ebb 333d f620 613d c982 f8bc 47de 113e
000002a0: 59f0 07bb 3211 15bd ef62 f2bd 8700 fb3d
000002b0: 9cd3 21bd 1470 993d 81c9 633d 18bf e8bd
000002c0: 7d69 733d 6149 2f3d 746c c7bc 8bdc aa3c
000002d0: 22e4 43be e95a 33bd e458 c23d e0d4 c73c
000002e0: 7957 74bb a517 273d 0ff2 953d ffb6 1dbe
000002f0: 4275 39be c619 cbbb c9eb 2dbe f41b 34be
0.17005709 0.0956841 -0.3380038 0.10139211 0.095745064 -0.33958107 -0.016342806 0.1223008
-0.06835354 0.048841506 -0.2289986 0.018336572 -0.14466426 0.23111558 -0.22944306 0.013488868
-0.12964217 -0.040420692 -0.25899795 -0.38473243 -0.2952165 -0.42720166 -0.10994235 -0.08196243
-0.07327592 -0.31585798 -0.5258054 -0.07550055 -0.09954264 -0.21695611 -0.19809482 -0.036902573
-0.26715127 -0.27647758 -0.38155362 -0.25881514 -0.011342433 -0.5343301 -0.31677112 -0.17940241
-0.1061735 0.099933855 0.20401695 -0.22068463 -0.14971069 -0.6032258 -0.22964273 0.001505257
0.33136895 -0.34189105 -0.35130554 0.16278927 0.5116029 0.06616715 -0.22964424 -0.08938856
-0.23811622 -0.47674733 0.11733554 -0.23948817 -0.15206482 -0.21085185 0.0054144794 -0.16075003
0.44193235 0.19800694 1.5347275 0.17950588 0.21100898 0.5798838 0.03535034 0.084128916
0.4925313 0.22707614 0.9761292 0.40032065 0.58107513 0.7418509 0.7132861 0.3078184
0.59263104 0.39428833 0.75489026 0.31802133 1.0038936 0.6272515 0.32172713 0.3123533
0.39971563 0.8843609 1.1852553 0.58709407 0.33991605 0.7446679 0.3249995 0.29238796
0.49642944 0.8983818 0.6286024 0.18729897 0.18315041 0.4283168 0.41534626 0.5176644
0.3263734 0.607784 -0.00028278623 0.5100414 0.2802678 0.73109317 0.3419549 0.6220197
0.20655517 0.27170646 0.30395168 0.25301033 0.38981637 0.25327244 0.6860857 0.40546542
0.303403 1.0812066 0.05160566 0.5026201 0.21562669 0.49469668 0.14506269 0.6335319
-0.26072884 0.108867235 -0.025683725 -0.15978748 -0.03189934 -0.008093112 0.10077544 -0.047728766
0.17028333 0.09906372 0.124827586 0.122580566 0.08043446 -0.12905926 0.026813842 0.12340251
0.03908453 -0.08668941 -0.089934774 -0.14413951 -0.042945098 -0.0082848035 -0.051027704 -0.062303945
0.10738198 -0.10017767 -0.03596216 -0.020821624 0.008926669 0.03213262 -0.20245707 -0.21791849
0.00035753267 -0.08191413 0.13135535 0.010739651 0.04387998 0.054963075 -0.0303358 0.14244948
-0.0020742624 -0.03639335 -0.11835276 0.1225596 -0.039508447 0.0749208 0.05561209 -0.11364573
0.059426773 0.04279459 -0.024343707 0.020857116 -0.19129995 -0.04378787 0.09489611 0.024393499
-0.0037283583 0.040794034 0.0732156 -0.15401839 -0.18111137 -0.006198141 -0.16984476 -0.17588788

fc.weight f4 [1, 64]
00000000: 16f3 d9bd 05ab d23c d560 4ebb dc68 2bbd
00000010: e0b1 7c3d fef4 bb3a fd17 593d 9da8 2dbd
00000020: ecde fbbb 4c87 903c f48e 923b f826 473b
00000030: ee34 d1ba 6b6a 94bd 5e8a aa3b 61c0 a5bc
00000040: 22f9 3fbc 22d5 6e3a 0fea 463b d4ad 96bc
00000050: 6999 5f3b f4b1 a5bb 715b 80bb 9fba f1bc
00000060: 5fa6 0f3c 4bfa 07bc d224 e4bb e29d ca3b
00000070: 9395 7cbc 1973 bfbb 02c2 4cbc bc68 0ebc
00000080: 48a7 41bc 8966 ecbb e96a 123b 5a8d 90bc
00000090: b647 8b3c 3191 513b d83d afbb 2eb5 9abb
000000a0: be03 42bc 307e 3b3c d7ae 6ebc c8ca c93b
000000b0: df62 47bb 93be b9ba 7dd9 713b 66e4 9e3b
000000c0: c762 3d3c ea4c 393c 48a9 66bb 0cd7 443b
000000d0: 76f7 f83c 0432 10bd 018a 2a3c ca7f 683c
000000e0: e66b 72bc 2110 d03b f301 e83c b361 78bb
000000f0: dabf 3fbc 7cbe 26bc 2c68 16bd 11d1 18bc
-0.10642068 0.025716314 -0.0031490822 -0.04184805 0.061693072 0.0014339981 0.053001393 -0.04239713
-0.0076864865 0.01764264 0.0044726077 0.0030388217 -0.0015961209 -0.0724686 0.005204483 -0.020233335
-0.011717113 0.0009110739 0.0030351912 -0.018393435 0.003411854 -0.005056614 -0.0039171507 -0.029507933
0.008767693 -0.008299421 -0.006962397 0.006183372 -0.015416521 -0.005842578 -0.012497427 -0.008691963
-0.011819668 -0.0072143716 0.0022341555 -0.017645527 0.017001968 0.003197741 -0.0053479485 -0.0047213053
-0.0118417125 0.01144366 -0.014568052 0.0061582066 -0.0030423922 -0.0014171175 0.0036903315 0.0048490046
0.011559195 0.011309842 -0.0035196114 0.0030035404 0.030391436 -0.03520395 0.010408879 0.014190624
-0.014796233 0.006349579 0.028321242 -0.003790003 -0.011703456 -0.010177251 -0.03672044 -0.009327189
